AIGamedevToolkit_Demo/Assets/AIGamedevToolkit/InferenceEngines/Barracuda/InferenceFeatures/StyleTransfer/Models/intel-mesh-shader.onnx (onnx, 443727 bytes, 64 tensors)

141 f4 [4]
00000000: 0000 803f 0000 803f 0000 0040 0000 0040
1.0 1.0 2.0 2.0

142 f4 [4]
00000000: 0000 803f 0000 803f 0000 0040 0000 0040
1.0 1.0 2.0 2.0

conv1.conv2d.bias f4 [8]
00000000: 8ce8 143d 5060 dc3d 4b4c 103d 9873 3ebc
00000010: eea6 443d 3669 f8bc 55ea 4cbd db2e 68bc
0.036354586 0.10760558 0.03522901 -0.011624239 0.04801076 -0.030323606 -0.050028164 -0.014171327

conv1.conv2d.weight f4 [8, 3, 9, 9]
00000000: ec7c 273d b3f6 d63d 79a1 e33d 3641 703d
00000010: c05a aa3d 4a36 4a3d a74d 333d e0ff acbc
00000020: 451e 07be 0555 0f3b e1b8 fd3d a20b 51bc
00000030: a98f f13c 3f72 afbb e1a9 b43c d8d6 073e
00000040: 3880 933d c2bf 01bc b5b3 cd3d df66 03be
00000050: a4bf aebd 60af 5c3d 01e0 4e3d a577 1fbd
00000060: ed5f e73d dbc9 e23d 1847 a63d 1bf3 0dbe
00000070: cc56 afbe 145d 4ebe d734 c6bd d0ae a2bd
00000080: 3eb0 60bd 607c 873e 157c c43d 9164 60bc
00000090: fa9e 91be 927e c4be a0dc e1be c9f4 9dbe
000000a0: 42af 7fbd 9f90 743e b4b2 bd3e 36d6 103d
000000b0: ea86 8cbd db4f 2bbe b1cc 8cbe 1f4f e4be
000000c0: dd68 74be 5691 96be 9819 9b3e 2db0 e93e
000000d0: 439a 763e d4ef 0d3e a9f3 0fbb d10f 72be
000000e0: 0ba9 5abe 96c6 6fbe 7a4a 91bc 49df f53e
000000f0: 5860 963e 8282 813e b674 d83d e3ab 80bd
00000100: 7b8c 05be 7f90 d7bd 230d 72bd 443d 6c3e
00000110: dcce 033e fab5 ee3d 72f7 573e 432b 693d
00000120: 460b f23d 6067 7a3d e2d3 e93d 4026 d43d
00000130: e273 433d 7ab5 f0bd 79df 9fbd 521c 22be
00000140: ac4e acbc 2e21 a83d 8f2a 7f3d 8675 ce3d
00000150: 1ec8 7a3d e31f fbbb fbcf d4bc 1802 a93d
00000160: cd14 cc3c 6671 07bd 3570 10be 71e4 46bd
00000170: 3db5 2fbd c4ca 0bbe e03e 1bbe 3d87 ccbd
00000180: f2e5 c43c dead 913d b77e 883d d446 ba3d
00000190: 7090 4fbe 5c5f 26be 7372 b6ba cd7a 9cbd
000001a0: fed2 cfbd 4e46 08bd 7dff c13d d8aa ce3d
000001b0: 1a7d 6fbd cdd2 92be 7ad2 78be 6f0c 17be
000001c0: 88bf 11be 4329 45bd 37bf 2c3e 4369 f63b
000001d0: 8536 2dbd 5a97 8bbe e88d f6be e6fe 08bf
000001e0: 181c a8be 8d58 2abd 2b74 8e3e cb48 bf3e
000001f0: 549a 553d 6f4a 05bd d1c6 6abe bdb2 bdbe
00000200: 00d4 c7be b87a 96bd 6995 b2bd 7ebe c73e
00000210: f2de 143f beca 913e 1dff 563e c21d 95bd
00000220: f970 46be ed87 cfbd 0196 25bd 519d 3e3d
00000230: 56d9 253f 5f8a c13e 429c a13e a4e3 473e
00000240: 0d49 fbbd adb7 16be 8aae a7bd c199 8c3d
00000250: d289 763e 52f9 0c3e 164b 823d 1c7b 563e
00000260: bdd0 e33d f076 d4bd e4ed 7abc b0eb e33d
00000270: cc49 b93d e208 2a3e 7737 dcbd 3be7 b53d
00000280: 0a7f 06bd d071 783d e2b7 f33d 0f0b 7d3d
00000290: 16fc c83d 66fa 593c fda3 843c 023e 6cbd
000002a0: e0d8 b93b 5948 72bd 5434 9cbd 69e5 4cbd
000002b0: 31c4 a63d e907 213d 08f1 953c dc70 1f3d
000002c0: 2595 aabc 61c3 b3bc 4dbd 87bc 8818 40bd
000002d0: 11ac f03d a76c 33bd bf01 dfbd cb62 843c
000002e0: cb7b be3d 2f1e acbd 142a 043d ee99 b23d
000002f0: 36ac 8dbd c627 a03d bcbb 34be 39a7 9b3c
00000300: 1a36 ab3d 8c53 763b 3cb8 e8bb e05a ec3d
00000310: 02e3 b73b 1943 8dbd c8c5 e4bd 0ff5 96be
00000320: 351e 89be 636f 80bd bde6 0b3c e4c2 4c3e
00000330: 58bb 783e c008 afbd dd9b 5fbe 885e dcbc
00000340: db69 48be 8d08 3ebe 9107 dd3b 4f6c 21be
00000350: 9c80 793e 41e2 aa3e 452e e33d 370e 703d
00000360: 9cbe 963d 79b2 61bd 11a7 c4bc 4cdc f3bd
00000370: efe7 c03c 52cc b53e f970 433e 497e 4f3e
00000380: 7739 103e d7f0 01bd d64f 003d d54c c13c
00000390: 29b4 2c3d 1c4d 103e 3c0f df3c 72be e2bd
000003a0: 71e5 c43d 0b68 e0bd 4960 803c 8e38 903c
000003b0: 179c a33d 8628 bc3d 6401 8bbd c126 7fbe
000003c0: 903d c6bd cdd4 46be c080 c4bd d8b4 c83d
000003d0: 17c9 4bbd 3296 6ebb c164 9a3d 0075 3b3d
000003e0: 17ba 133e b703 6f3d 1633 abbc 304c 05be
000003f0: 3043 363d ff58 18bc f57b 4ebc b465 0abd
0.04089062 0.10496273 0.11114783 0.05865594 0.083180904 0.04936818 0.043775227 -0.021118104
-0.1319514 0.0021870744 0.123887785 -0.012759121 0.029487448 -0.0053541954 0.02205366 0.1326555
0.0720219 -0.007919254 0.10044042 -0.12832211 -0.08532646 0.053878188 0.050506596 -0.03893246
0.11297593 0.11073657 0.08119029 -0.13862269 -0.34245908 -0.20152694 -0.09678047 -0.07943499
-0.054855578 0.26462078 0.09593979 -0.013695852 -0.28441602 -0.38377815 -0.44113636 -0.3085082
-0.062423 0.23883294 0.37050402 0.035360537 -0.0686167 -0.16729681 -0.27499917 -0.44591615
-0.23868127 -0.29407758 0.30292964 0.45642224 0.24082284 0.13861018 -0.00219653 -0.23638846
-0.21353547 -0.23415598 -0.017735709 0.48021916 0.2937038 0.25294882 0.10569136 -0.06282785
-0.1304187 -0.10525607 -0.05909456 0.23070246 0.1287188 0.11655803 0.21090487 0.056926023
0.118185565 0.061133742 0.114173666 0.10358858 0.047717936 -0.11753364 -0.07806296 -0.15831116
-0.021033607 0.082094535 0.062296446 0.100810096 0.061226003 -0.0076637133 -0.025978079 0.082523525
0.024912262 -0.03306713 -0.14105304 -0.048557702 -0.04289745 -0.13651568 -0.15160704 -0.09986732
0.024035428 0.07113241 0.06664794 0.09095541 -0.20269942 -0.16247314 -0.0013919607 -0.0764061
-0.101476654 -0.033270173 0.09472559 0.100911796 -0.058468916 -0.28676453 -0.2429904 -0.14750837
-0.1423322 -0.048135053 0.16869818 0.0075198724 -0.042288322 -0.2726391 -0.4815514 -0.53513944
-0.32833934 -0.041588355 0.27823004 0.37360224 0.052149132 -0.03254169 -0.22927405 -0.3705043
-0.3902893 -0.073476255 -0.08719904 0.39012522 0.5815269 0.28474993 0.20995755 -0.072810665
-0.19379033 -0.10133348 -0.040426258 0.046536747 0.64784753 0.3780088 0.31564528 0.19520432
-0.12269793 -0.14718504 -0.081875876 0.06865264 0.24076012 0.13766983 0.06361978 0.209454
0.11123798 -0.10374248 -0.015315507 0.11128938 0.09047279 0.16604951 -0.107527666 0.08881994
-0.032835998 0.060655415 0.11900307 0.061778124 0.098137066 0.013304329 0.016191477 -0.057676323
0.0056716055 -0.059151027 -0.07627168 -0.05002347 0.08142889 0.039314184 0.01830341 0.03892599
-0.02082307 -0.02194375 -0.016569758 -0.046898395 0.11751569 -0.04380479 -0.10889005 0.01616039
0.093009554 -0.084041946 0.03226669 0.08720766 -0.06917612 0.07820086 -0.1764974 0.019000636
0.083599284 0.003758642 -0.0071020406 0.115407705 0.0056117782 -0.068975635 -0.11170536 -0.2948384
-0.2678086 -0.06271245 0.008538899 0.1999622 0.24290216 -0.08546591 -0.21836801 -0.026900545
-0.1957163 -0.1855795 0.0067452868 -0.15763973 0.24365467 0.33375743 0.110928096 0.058607306
0.073605746 -0.055101845 -0.024005445 -0.11907253 0.023548095 0.35507447 0.19086064 0.20263018
0.14084421 -0.031723823 0.031326137 0.023596207 0.042164 0.14091915 0.027228944 -0.11071481
0.09614075 -0.109573446 0.015670912 0.017605092 0.07988756 0.09187417 -0.067873746 -0.24917127
-0.09679711 -0.19417115 -0.095948696 0.09800118 -0.04975232 -0.0036405441 0.075387485 0.045765877
0.14426456 0.058353152 -0.020898383 -0.13017344 0.04449767 -0.009298562 -0.012602796 -0.033788398

conv2.conv2d.bias f4 [16]
00000000: e750 7f3e 3835 cc3c 4432 3cbe ff79 a13e
00000010: 141e 97bc 2e74 e3bd 2c61 8a3e dbf2 3b3e
00000020: 3885 213e bc12 f3bd 71d4 803e b28a 38bb
00000030: 5d80 acbd 0cde d93c 5801 cbbd 4bc5 6c3c
0.24933206 0.02492772 -0.1837855 0.31538388 -0.01844696 -0.11106144 0.2702726 0.18354361
0.15773475 -0.11868808 0.2516208 -0.002815884 -0.08422921 0.026595138 -0.09912366 0.014451335

conv2.conv2d.weight f4 [16, 8, 3, 3]
00000000: 5cf7 92be 5ed0 043d 9e31 9a3e db13 17bc
00000010: 8098 063e 5235 ca3e 41e7 7e3e 411c 043e
00000020: dd18 863e caaf 0bbe 665d b33c 7de9 d03d
00000030: eadc b1be b664 debe d7c6 8b3c 7ea7 88bd
00000040: 5cd5 b6be 6f63 2abe c368 12be fed5 d2bc
00000050: d47a 69bd 8a85 68be 5d72 7fbb 4b93 563e
00000060: 6051 ebbd 0d43 303d f7bc 3a3d 7826 86be
00000070: 8346 b7bd d486 afbe a144 4dbf 49cc 66bf
00000080: 57be 75bf 4323 78be 5676 26bf aa45 32bf
00000090: 508d fc3d 0ebd 25bc b4b9 303d 71dd 733c
000000a0: 5276 98bd d367 dfbd 7d0a 15be 1dbe 4bbd
000000b0: 5afb 76be a6f8 0ebe dbfa 73bd caf2 63bd
000000c0: d820 853d 4d86 593d caf6 09be d02d 393e
000000d0: 22b5 5e3e d811 c53c 624f ca3c 6576 a43d
000000e0: b12a 87bc 02b4 3ebc 40e0 e53a 9870 e03d
000000f0: 41d5 00bc f1fe 29be f68b a9bd 04f4 843d
00000100: 4e07 72bd a13e 15bd f673 ef3d e1b3 2bbe
00000110: 5678 d83d 5203 06be ec8f 98be 09ba f9bb
00000120: 1be3 993e ab26 05be 3278 aebe d290 ff3e
00000130: 542c c73c ab6e 8bbe bc12 b43e 5b93 2d3d
00000140: 79d4 443d 1e90 d03c 8518 d63d 40c0 07be
00000150: e1d7 153e 2d1f d43d 2346 d9be f009 953d
00000160: d2c4 033f 4ee8 24bd fbdd 8abe 86ca debc
00000170: 26d4 c43d 191f 96be 09bd 0b3e 5688 5d3e
00000180: 2bdf 143d 5a56 853e 0390 e9bd d27e 5c3d
00000190: 718a 9fbc 0b6a 213d 5e7a 51bc 8618 aa3d
000001a0: 3dc8 723e 7bbd a1bd 6317 c23e 98b0 053f
000001b0: 967a 933d 85d3 88bd 30dc bebd 3ae6 f3bc
000001c0: 7fcb 86bd 17fb f13c 68a3 77bd 5f74 093e
000001d0: 5ae5 a63d 370b 0cba f7f8 8a3c ebbf 423e
000001e0: 8904 ac3d 76e2 03bd 1024 903d 0e5c 5c3e
000001f0: 5c1e 3c3e 41e4 1f3e f197 ddbc c708 5bbc
00000200: 14f6 1bbe bb97 0cbe aade 0a3e f2b5 563e
00000210: 79e7 b0bd 3dc3 2cbe bda2 803a 6845 893d
00000220: 1108 06be 2df7 d03d 45a4 18be 6e1d 21be
00000230: 9f80 813e e00e 03bf b3d2 193d 8106 143f
00000240: a6a2 94be 80e4 10be 6dfb c7be 57c2 403e
00000250: 93c9 b73c e2be 23bd 24d4 7c3e 7e1f 713e
00000260: 0f9b 803e 7113 0e3f 841e ae3e a66e c93e
00000270: 1c4e 41be e93a 27be fb22 01bd 7de6 bbbe
00000280: 472b 01bf 35ce 81be 8570 97bc 6182 c3bd
00000290: 7f68 2a3e 2fbc 94bd da1e 4ebe 69d6 1abe
000002a0: 9d07 503e 3d76 ec3c 2e6b 793d bb21 e13e
000002b0: e686 a13e 6a62 b13e 9a7c 673d bbed 9ebd
000002c0: c9ff 2cbd 7c1c d3be 5620 fbbe f6a1 7cbe
000002d0: 02d0 033d 00a5 f9bd d308 2fbe 3d04 863e
000002e0: 9f66 3b3e bf57 723e aab4 093d 1815 19be
000002f0: 0f4a 74be db29 4e3e 508a 833d d1b3 cfbd
00000300: 52ce 1ebc 0585 a0bd 9b44 03be 7819 723e
00000310: 342c 663e 8c61 7ebc 1053 dabd d644 ccbd
00000320: e637 5fbd 05e8 013e b9ee 923c 7583 813d
00000330: 9c5b 3ebd 1429 5d3d b84e 453e 6d1d abb9
00000340: 0ca8 323d dcb0 21be 8b25 4b3e 43bc 393d
00000350: f284 0fbe 6015 553e 27e0 8bbd a5b5 72be
00000360: 36fd 41be c04c 83bd c05a 06be 6e13 cebe
00000370: 3cf7 a8be c0f1 b2be 3e6e 94be 7c99 cebe
00000380: 561f e5be 265c 09be 7c73 dcbe 9f09 ca3d
00000390: 3560 a13d 836d 0ebf e926 84be bb6d 29bd
000003a0: 196e aabe edd9 1abf bc6c 4ebe 46c2 8a3e
000003b0: 1612 bfbd 4c6f 473c d825 c53e 5686 f03c
000003c0: 0028 41be d620 c9bc 541e 99be 9b7e 6dbe
000003d0: 4efb 0dbe 6dbb c9bd d962 a5be fbaf 80be
000003e0: cab6 203c 1947 a5be 382b 85be c3d8 b9be
000003f0: 84fc b6bd f4ab b23c 6a3e edbd 8218 4dbc
-0.28704345 0.032425277 0.3011598 -0.0092210425 0.13144112 0.39493805 0.24892904 0.12901403
0.26190844 -0.13641277 0.021895122 0.10200784 -0.34738857 -0.4343621 0.017062588 -0.066725716
-0.35709655 -0.16639493 -0.14297776 -0.025736805 -0.057001904 -0.22707191 -0.0038978078 0.20954625
-0.114901304 0.043032695 0.045590367 -0.26201224 -0.08948996 -0.34282553 -0.80182844 -0.90155464
-0.9599356 -0.24232201 -0.65024316 -0.6963755 0.12331641 -0.010115875 0.04314585 0.014884339
-0.07444443 -0.10908475 -0.14554782 -0.049741853 -0.2411932 -0.1396204 -0.059565406 -0.055651464
0.06500405 0.053106595 -0.13473049 0.18083882 0.21748784 0.02405636 0.024696056 0.080303945
-0.016499849 -0.011639597 0.0017538145 0.109589756 -0.007863344 -0.16601159 -0.082786486 0.06491855
-0.059088998 -0.03643668 0.1169204 -0.16767837 0.10569827 -0.13087204 -0.29797304 -0.007621054
0.3005608 -0.13003032 -0.34076077 0.49915177 0.02431313 -0.2723287 0.35170543 0.042376857
0.048054192 0.025459345 0.104538955 -0.13256931 0.14633133 0.10357509 -0.42436323 0.07277286
0.514722 -0.040260606 -0.27122483 -0.02719618 0.096107766 -0.293206 0.1364633 0.2163404
0.036345642 0.26042444 -0.11404421 0.053831883 -0.019475194 0.03940777 -0.012785522 0.08305459
0.23709197 -0.07897469 0.37908468 0.52222586 0.07201116 -0.06680969 -0.09319341 -0.029772867
-0.065817825 0.029538674 -0.06045857 0.13423298 0.08149214 -0.00053422473 0.016964419 0.19018523
0.083993025 -0.03219839 0.070381284 0.21519491 0.18370956 0.15614416 -0.02704999 -0.013368792
-0.1523059 -0.13729756 0.13561502 0.20967844 -0.086379 -0.16871352 0.0009814125 0.06702691
-0.13089015 0.10203395 -0.14906414 -0.15733883 0.25293443 -0.5119457 0.037554454 0.57822424
-0.2903034 -0.14149666 -0.3905901 0.18824135 0.022434985 -0.039976962 0.246903 0.2354717
0.251183 0.55498415 0.34007657 0.3934223 -0.18877453 -0.16331066 -0.0315275 -0.36699286
-0.5045666 -0.25352636 -0.01848627 -0.09546352 0.16641425 -0.07262456 -0.20128956 -0.15120853
0.20315404 0.028864974 0.06089323 0.43971047 0.31548232 0.34645396 0.056515314 -0.07760187
-0.042236123 -0.4123267 -0.49048108 -0.24671158 0.032180794 -0.121896744 -0.1709321 0.2617511
0.18300866 0.23666285 0.03361956 -0.14949453 -0.23856376 0.20133154 0.064228654 -0.10141719
-0.009692745 -0.078378715 -0.1281914 0.23642528 0.224778 -0.015526187 -0.10660374 -0.09974067
-0.05449667 0.12686165 0.017936097 0.063239016 -0.046474084 0.053994253 0.1926831 -0.00032637586
0.043617293 -0.15790123 0.1983854 0.045345556 -0.14015558 0.20808935 -0.06829863 -0.23702104
-0.18944249 -0.06411123 -0.13120556 -0.402492 -0.33001125 -0.34950066 -0.28990358 -0.40351474
-0.4475047 -0.13414058 -0.43056858 0.09865116 0.07879678 -0.5563585 -0.25810936 -0.041364413
-0.33287123 -0.6048878 -0.20158666 0.27101344 -0.093296215 0.012172531 0.38505435 0.029360931
-0.18862915 -0.02455179 -0.2990595 -0.23192827 -0.13865396 -0.09850202 -0.32301977 -0.25134262
0.009809205 -0.32280806 -0.26009536 -0.3629819 -0.08934882 0.02181051 -0.1158417 -0.01251805

conv3.conv2d.bias f4 [32]
00000000: 042a c53d 6f32 203e 7a39 e9bc da56 473e
00000010: 7072 eb3d 22f9 07be 6844 9ebd 93c0 9ebd
00000020: 6a40 893d 0f5a d23e 0bf0 02be c237 073e
00000030: f1b6 c73d 529e d8bd b1bb 8e3e fdc2 7e3e
00000040: 3bb0 b6bd 8d80 263e 1813 83be cdd5 7abe
00000050: f63a 81be e608 513d 4f21 03be bfa5 a93e
00000060: 5af5 a4bd 4591 9abe 5f4e aa3c e7d3 8abe
00000070: fed1 b73e ff97 fe3b 46e5 9cbd 7205 4a3c
0.096271545 0.15644239 -0.02846979 0.19466725 0.114964366 -0.1327863 -0.07727891 -0.07751574
0.06701739 0.41084334 -0.12786882 0.13204864 0.0975169 -0.10577072 0.27877572 0.2487907
-0.08920332 0.16259976 -0.25600505 -0.24495621 -0.25240296 0.051033877 -0.12805675 0.33134267
-0.080546096 -0.30188957 0.020789323 -0.27114794 0.359024 0.007769584 -0.07660918 0.0123304

conv3.conv2d.weight f4 [32, 16, 3, 3]
00000000: b2d6 76be e358 53be fc11 56bd be4d bcbe
00000010: d9ed 6bbe 5ace 963b 4d59 24be f45e c5bd
00000020: bc5f 523e 72d3 0dbf 1c62 27be a5ea 8a3e
00000030: 3d70 b8be 7f30 2ebf 2af7 03be 6573 92be
00000040: 8d6f b2be 307e 8bbe c2c7 2ebd 4832 80bc
00000050: 2ffc 583d 807e c2be 8e6e 51bd 70c3 bfbd
00000060: 20eb f0bc a313 dbbc 956d 6f3e c7e2 4e3e
00000070: dbd3 743d 8c23 4bbe ad67 ef3d 30ff 4b3e
00000080: d5d9 763d 1181 703e 5482 8e3e 5dba 9f3e
00000090: 4dfa 8fbd 9417 19be a471 8ebe ba36 a7bd
000000a0: be27 df3d 62c4 473e 1903 febc 7a11 243e
000000b0: 9df4 963e d000 b63d 618b ed3c 7d20 18be
000000c0: cfa5 253c 4858 91bd a291 a0bd d160 02be
000000d0: dbf8 a6bd 7b1f de3d fb17 093c ee47 3dbb
000000e0: 8436 283e 7187 49bd cef1 f1bd 0817 903d
000000f0: b130 9c3d c2af 253c cac2 973d eff8 2bbe
00000100: 066b a8bd b228 e3bc 1211 39bc 9edf 45bd
00000110: 1b0b 97bd 0876 c8bd 7ec6 08be b247 02bd
00000120: 4f99 cf3d a54c a3bd b604 c2be b013 3c3e
00000130: 3475 fe3d 8e15 e8be f1a6 103d 9746 fbbd
00000140: 15ca 92be 59f3 733c 5615 893d b766 3a3d
00000150: 1867 b2bd 889f 673d 2577 a8bd 1c2c 303c
00000160: d018 87be a46e f3bd 7f81 013d 9cf4 a4bd
00000170: 8017 f53c 9c26 a8be 9539 65bf 6424 dbbe
00000180: 8b41 c73c 606e 08bf 2977 c4be c81a cf3c
00000190: 50c9 62bd 6c11 adbd ad31 353e 9568 77be
000001a0: 742f d1be bcc0 7a3d 0703 083d 9b20 14bf
000001b0: bdbd a5bd f633 60be 3135 bfbd e450 c1be
000001c0: ba10 2fbf d63a afbe 4bfa 3dbe 197c 4abe
000001d0: c9e9 223e 31b6 19be 45ab 413d e1ab 703e
000001e0: 80c1 183e 0b79 72be bf5a 97bc 1e53 05bd
000001f0: 0f2a 5fbe ce06 52be 516c 2d3e a066 92bd
00000200: 0238 dbbd ce9f 813d ea15 2a3c eadc d2bb
00000210: 6ec4 a93a f3a2 3cbc 5fbe 413e 4653 923d
00000220: 4c9b a63e c2bb aa3e 672e db3d 829d bc3e
00000230: 0d1a 253e 2f81 0c3e 132e 933d f3b2 353e
00000240: 57b3 1fbe 93d7 18be 6814 973d 6377 f3bd
00000250: b202 61bc a603 083e 4523 83bb 741b e4bc
00000260: 1954 1dbd c1b5 9f3e 69b8 07be 0d0a bcbd
00000270: ffc3 02bf a22d dbbe 8d63 963d 5a69 d9be
00000280: 3991 68be 36cc 373d e891 073d 1f20 0e3e
00000290: 27d4 39bd 3c0a 803d a5d2 96be f9cf c1be
000002a0: 4b93 3a3e 029e 53be ddef 323e b374 223e
000002b0: e566 a43e f153 073e ef20 423e 7059 2d3e
000002c0: 85c6 b1bd a4bc 883e fdbf 57bd 1ebc 6ebe
000002d0: 64db 1fbe d8e7 c8bd e541 9c3b 6c6f 3d3e
000002e0: 3660 b73e 7def 163e 9073 803e 75e3 883e
000002f0: 4530 81bc 46aa 4bbe be72 bcbc 1e28 d8bd
00000300: 3ed6 43be 2c72 043e 56eb 46bc be09 9a3c
00000310: 1057 ed3d 4067 d0bd 835e 2c3e dff0 fcbd
00000320: eed6 16be e836 68bd 2ee9 5dbe 2bd0 90be
00000330: 9140 293e d0d3 d53c 014a 393d b4d5 afbd
00000340: f5c6 0cbb 30cf 4ebe dd51 82bd f806 cbbe
00000350: 1d4c 3dbe 8b1e a7bd ce4d d3be da8b 46be
00000360: 0119 b53e f40d c03e 6ca4 1a3e c978 ee3e
00000370: 141a 643e 7fa1 7ebe f4fa d23e bb8f 9abc
00000380: 8e00 89be a62d 723e 8223 703d 4f4f 07be
00000390: 808e f73b 9c0d 023d 8991 4dbe 9b61 053c
000003a0: ec75 35be ab33 f9bd 83c7 873e a026 5c3e
000003b0: 2f5d 9abe d493 033e c423 b1be ef5b 80be
000003c0: 890a 75bd 5eaa 6f3d 0eda a23d a7d5 5c3e
000003d0: 9104 cd3e 8ee7 cc3d 0540 8d3e b91e d4bd
000003e0: 34d4 57be 5b19 21be 3ad8 28be 8295 1cbe
000003f0: 62ad 333e ec3a 9b3e 1b37 ea3c 04a7 1f3e
-0.24105337 -0.20639376 -0.052263245 -0.36778063 -0.2303995 0.0046022357 -0.1604969 -0.096372515
0.20544332 -0.55400765 -0.1634602 0.27132145 -0.3602313 -0.6804275 -0.12887254 -0.28603664
-0.34850731 -0.2724471 -0.042670973 -0.015648976 0.052974876 -0.37987137 -0.051130824 -0.093634486
-0.029408991 -0.026742762 0.23381646 0.20203696 0.059772354 -0.19837779 0.116896965 0.19921565
0.060266335 0.23486735 0.27833807 0.3119687 -0.07030163 -0.149504 -0.27821076 -0.08164735
0.10896252 0.19508508 -0.031007336 0.16022292 0.294835 0.08886874 0.028997125 -0.14856143
0.010110333 -0.070969164 -0.07840277 -0.12732245 -0.08152934 0.10845848 0.008367534 -0.0028881985
0.16427046 -0.049201433 -0.11813699 0.07035643 0.07626475 0.010112705 0.074102 -0.1679418
-0.08223538 -0.027729366 -0.011295574 -0.04830896 -0.07375165 -0.09788138 -0.13356969 -0.031806655
0.10136663 -0.07973603 -0.3789422 0.18366885 0.124246985 -0.45328945 0.035315458 -0.12269323
-0.286698 0.014889562 0.06693523 0.045508113 -0.0871107 0.056548625 -0.0822585 0.010752704
-0.26386118 -0.118863374 0.031617638 -0.08054468 0.029918432 -0.32841957 -0.8954099 -0.428012
0.024323246 -0.5329342 -0.38372162 0.025281325 -0.055367768 -0.084505886 0.17694731 -0.24160989
-0.40856516 0.061218962 0.033206012 -0.5786225 -0.0809283 -0.21894822 -0.09336317 -0.37757027
-0.683849 -0.34224576 -0.1855251 -0.19773902 0.15909494 -0.15010907 0.047282476 0.23503067
0.14917564 -0.23678987 -0.018475888 -0.03254997 -0.21793388 -0.20510408 0.1693585 -0.071484804
-0.10704042 0.063293085 0.010381201 -0.0064350264 0.0012952217 -0.0115134595 0.18920277 0.071447894
0.32540357 0.33346373 0.1070221 0.3683892 0.16123219 0.13721155 0.07186522 0.17744045
-0.15595756 -0.14925985 0.07376939 -0.118880056 -0.013733553 0.13282642 -0.004002007 -0.027845122
-0.03841028 0.31193355 -0.1325394 -0.091816045 -0.51080316 -0.42808253 0.073432066 -0.4246319
-0.22711648 0.044872485 0.03309813 0.1387944 -0.04536834 0.06251952 -0.29457584 -0.37853983
0.1822025 -0.20665744 0.17474313 0.1586483 0.32109752 0.13215615 0.18957876 0.16928649
-0.08680443 0.2670642 -0.05267333 -0.23313949 -0.15611035 -0.09809846 0.0047685974 0.18499535
0.3581559 0.14739795 0.25088167 0.26736036 -0.015770087 -0.19889173 -0.023003932 -0.10554527
-0.19124696 0.12934178 -0.012141069 0.018803474 0.115888715 -0.101759434 0.16832928 -0.1235063
-0.14730427 -0.056692988 -0.21670982 -0.2828382 0.16528536 0.026101977 0.04523659 -0.085856825
-0.0021480892 -0.20196223 -0.063632704 -0.39653754 -0.18486066 -0.081601225 -0.41270298 -0.19389287
0.3537064 0.37510645 0.15101784 0.46576527 0.22275573 -0.24866293 0.41207087 -0.018867364
-0.26758236 0.23650226 0.058627613 -0.13213848 0.007554829 0.03175126 -0.20075049 0.008140947
-0.17720765 -0.12168058 0.26519403 0.2149911 -0.30149218 0.1284936 -0.345976 -0.2507014
-0.0598245 0.058512084 0.07951747 0.21565877 0.40042546 0.10005103 0.27587906 -0.103574224
-0.21077043 -0.15732329 -0.16488734 -0.15291408 0.17546609 0.3031839 0.02859073 0.15591055

deconv1.conv2d.bias f4 [16]
00000000: b0f0 a93e 7ae4 bbbd a35f 42be 9744 fe3b
00000010: aeb7 103e fee0 a7bb 15c1 713e a988 a23e
00000020: 0b7c 30be 309d f2be addf 6fbe 5308 c3bd
00000030: 2c64 aa3e 06cc 583d b272 81be af63 973d
0.33191442 -0.09174438 -0.18981795 0.0077596414 0.14132568 -0.0051232567 0.23608811 0.31744888
-0.17234819 -0.4738555 -0.2342517 -0.09523072 0.3327955 0.052928947 -0.25282818 0.0739206

deconv1.conv2d.weight f4 [16, 32, 3, 3]
00000000: 7232 463e 7cd1 28be 385a 8abd 6768 94bd
00000010: 0d3d c73e de8b fbbd a682 09bd 13af d63d
00000020: 96d7 1bbc f8a4 513e 7916 f73d af16 963c
00000030: e85e b7bd dadd 1bbd 98ca 45bd 53da 7dbe
00000040: 1fbf 0d3d ea85 28be 5aa3 ac3d 5ee1 43be
00000050: df68 29be 0200 2ebe 5a1a b03e 57b5 ee3d
00000060: 55c0 243e a05d 86bd 8a85 2bbd 7e01 6dbe
00000070: 3430 823e e1b8 7b3d 0866 bcbc bf51 13bf
00000080: a666 b63d 6a90 bb3d e51b 883d 53aa e9bd
00000090: 857a 823b 66c0 58bd 81c8 753d 571f 923e
000000a0: bc2a 8fbe d961 25bc 65b1 523e 526a ea3d
000000b0: 621f 46bd f5bb 6e3d fc24 64be f359 0c3b
000000c0: 24d9 9e3d 584a 2fbd b6f6 22be 5f60 043e
000000d0: 8980 f03d 4912 eabd 93cf db3d e066 4abd
000000e0: a2cc 473d 112f 23bd c304 b2bd 69f5 b03d
000000f0: 9eca 3dbe 837c dcbb 7295 4f3c c723 b9ba
00000100: 722f 03be 4bb4 603d 3faa 3ebd d6e7 9ebd
00000110: 8415 2f3c 2242 303e 498c 2d3d 2af0 a43d
00000120: a386 7dbe 4a61 23be 0bb5 083e e562 2a3e
00000130: 5a14 8abe 212d b0bc e7f9 223d 9dc1 603e
00000140: 7d29 87be 51fd 993e fed3 23be 37ce 313e
00000150: 8283 973d 1792 d93e 1abf 67be e2e6 44bc
00000160: d096 f4bd 9a6c 153e bb0a 0b3e 4b9f 51be
00000170: 07fa 933d bb11 a33c 30b3 353e 8b0e e7bd
00000180: f32e 7cbe 158c 353d 8a03 a13c 862e e63d
00000190: 242a d93c b1e1 1a3d 85a3 65be e1cc 973d
000001a0: 94c2 c8bd 8500 f53d 55ad 70bd 2990 52bd
000001b0: d5c6 4abe a818 53be 596a c73d eb78 5f3e
000001c0: be39 94be d3c3 28be 8b4a 59bd 180f b43e
000001d0: 3c74 b7bd 5cd1 a3bd f7e6 8c3e c530 42be
000001e0: 38bf c9be 90ab 6c3e c211 f83d e972 cd3d
000001f0: 1d01 eabd 302f b13d 28b7 b8bd 4061 e63d
00000200: 4eeb de3d 9304 363e f691 38be e348 59bd
00000210: f258 eebb 9816 35bd 9f05 5dbd 922d 25bd
00000220: 7252 193c 6c30 02be d23b 05be 06a2 bb3e
00000230: c75a 5f3d 48c4 1ebd 358d 15be 49e8 723e
00000240: 3d1d 74be 020a 54be 881a adbc 0897 4f3d
00000250: 3396 98be e008 84be 4078 273b 9f25 853d
00000260: c452 a8be 6dd6 63bc 97aa 2bbe 79c8 33be
00000270: efea fcbd 0b84 973d 84eb c1bd 8c7d 533d
00000280: e68e 75be d0b3 063e c359 1b3d cca8 fcbc
00000290: 08b6 873c d2a2 c23d 65f6 233e f2a5 9d3d
000002a0: cf5a c1bd 345d 763d b362 143e ae45 96be
000002b0: 43d6 a93d bc45 babb fed7 babd b7ac a5be
000002c0: 180e 903e 5935 603e 4031 e53d de28 cfbd
000002d0: 08fa 2ebe 81a4 513e 2f49 27bd 9189 1e3d
000002e0: f15b 00bc d18c 013e c628 3c3e d708 3b3c
000002f0: 109e 573e c415 82be 0321 1e3f 0979 99be
00000300: 6e6a 96be 5aaf 97be 7b22 153f 80b3 c03e
00000310: ee89 ffbe 9286 27bd 7b21 d33d 0561 813d
00000320: e7a2 823d b07a d6bd 3bce 2e3e 44f1 70bd
00000330: 147f 82bc dbd0 bf3c f42e 9d3e 3c63 723e
00000340: 97fb 6bbe 6c0b 3f3e dc60 12bd b4c7 fb3e
00000350: f3c8 91be e952 0bbe ee8e c1bd 9281 d33d
00000360: f834 b23d 2164 0f3e 44af 8abe 9982 f33d
00000370: 3091 a03e 7cda 553d fbf1 07be b85c 693d
00000380: 0972 243e 914b 233e 0fc6 013e fd0d cdbd
00000390: 0158 b03d 5495 4a3e 4e72 ff3d 3ba3 6d3d
000003a0: 5f03 113d da63 2e3d 1c6d f8bd f3db 99bd
000003b0: b475 783c cf86 b23d 7ce0 bfbb 1820 35bd
000003c0: c66a eabd 865c 843d 1c5a 603d b894 c4be
000003d0: a854 dc3e f135 d2bb b20f 44be 2788 1bbe
000003e0: 53a9 213e 3cf9 2c3c 7f6e 6dbe 80c1 133c
000003f0: ab95 fabd 02a6 23be 2905 ea3d 8848 17be
0.19355181 -0.16486162 -0.06755489 -0.07246476 0.38913766 -0.12282537 -0.03357186 0.104826115
-0.009511849 0.20473087 0.12064833 0.018321363 -0.08953649 -0.03805337 -0.04828891 -0.24790315
0.034606095 -0.16457334 0.08429594 -0.1912894 -0.16543911 -0.1699219 0.34395105 0.116556816
0.16088994 -0.06560826 -0.0418754 -0.231451 0.254274 0.06145561 -0.022997871 -0.5754661
0.089062974 0.09158404 0.066459455 -0.1140944 0.0039818906 -0.05291786 0.06000567 0.28539535
-0.2796229 -0.0100941295 0.20575483 0.1144606 -0.048369773 0.05828472 -0.22279733 0.0021415919
0.0775626 -0.04279551 -0.15914425 0.12927388 0.11743266 -0.11429269 0.10732951 -0.049414515
0.048779137 -0.039839808 -0.086923145 0.08640558 -0.18534324 -0.00672871 0.012669908 -0.0014125042
-0.12811068 0.05485944 -0.046549078 -0.07759063 0.010686282 0.17212728 0.042370114 0.0805362
-0.24758391 -0.15955082 0.13350312 0.16639288 -0.26968652 -0.021505894 0.039789107 0.21948858
-0.2639884 0.30076078 -0.15998837 0.17363821 0.0739813 0.4249427 -0.22631493 -0.012017937
-0.11942828 0.1459221 0.13578312 -0.20470922 0.07225423 0.019905915 0.17744136 -0.11282071
-0.24627285 0.044323046 0.019655008 0.112393424 0.026509352 0.037812892 -0.22425659 0.074121244
-0.09802738 0.1196299 -0.058759052 -0.051407013 -0.19802411 -0.20614874 0.09737081 0.2182347
-0.28950304 -0.16480951 -0.053049605 0.35167766 -0.08957717 -0.079989165 0.27519962 -0.18963917
-0.394037 0.23112321 0.12112762 0.10031683 -0.114259936 0.086515784 -0.09019309 0.11249018
0.108847246 0.17775182 -0.1802443 -0.053048026 -0.0072737867 -0.044211 -0.05396044 -0.040326662
0.009358035 -0.12713784 -0.13011101 0.36647052 0.05452993 -0.038761407 -0.14604647 0.23721422
-0.23839279 -0.20706943 -0.021130815 0.050681144 -0.29802093 -0.2578802 0.0025553852 0.06501316
-0.32875645 -0.013906104 -0.16764294 -0.17556943 -0.123494975 0.07398232 -0.09468749 0.051633403
-0.23980293 0.1315453 0.0379274 -0.030842207 0.016566291 0.09503712 0.16011961 0.07697667
-0.094411485 0.06014748 0.14490776 -0.29350036 0.0829282 -0.0056845825 -0.091232285 -0.32358333
0.28135753 0.2189535 0.11191034 -0.10115217 -0.17087567 0.2047291 -0.040841278 0.038705412
-0.007834421 0.12651373 0.18374929 0.011415682 0.2105639 -0.2540723 0.6176912 -0.29975155
-0.29378074 -0.2962597 0.5825574 0.37636948 -0.4990992 -0.04089982 0.1030912 0.06317333
0.063787274 -0.104726195 0.17070858 -0.05882384 -0.015929736 0.02341502 0.30699885 0.23670667
-0.23045193 0.18656701 -0.035736904 0.491758 -0.28473625 -0.13605846 -0.0945109 0.10327448
0.08701509 0.1400304 -0.27086842 0.11890144 0.3136077 0.052210316 -0.13275902 0.05697319
0.16059126 0.15946795 0.1267321 -0.10012434 0.086105354 0.19783527 0.12472974 0.058016997
0.035403606 0.042575695 -0.12130186 -0.07512655 0.015164781 0.08717119 -0.005855618 -0.04422006
-0.11446147 0.0646296 0.054773435 -0.38394713 0.43033338 -0.0064151217 -0.19146612 -0.15188657
0.15787248 0.010557469 -0.23186682 0.009018302 -0.12235578 -0.15981296 0.114267655 -0.14773762

deconv2.conv2d.bias f4 [8]
00000000: cddf 843e 8caf 353d 992f 9ebe 9ab8 81be
00000010: 092c 13bd 29e3 053e ac6c 723e 1046 823e
0.25951996 0.044356868 -0.3089569 -0.25336152 -0.035930667 0.13074936 0.23674268 0.25444078

deconv2.conv2d.weight f4 [8, 16, 3, 3]
00000000: 014c 043d f9a1 8aba ba4e 36bc 653f 83bd
00000010: 3c64 b53d 7c91 53bc 6486 763c 3d65 31be
00000020: 96f1 963d d736 d33c ba21 443d 3e9a 23bd
00000030: 671f 0abd 40e0 1bbd 7904 b0bd 18db 59bd
00000040: 438e cbbc 6871 9c3d a753 f43c 6912 dfbc
00000050: 76ec fc3c 2d2d 2f3c 1089 ca3b 4271 f7bd
00000060: 45a0 a8be cdcd 573b 9d05 763d f633 daba
00000070: 12f6 773d 56bd f6bc 3f87 15bd 2f27 4dbd
00000080: c205 80bc 8013 a63b 4b55 743c eb09 24be
00000090: 33f6 af3d afa8 4ebd 9596 3ebe 57d5 2e3b
000000a0: 6eeb e4bd 69e1 1f3d ffe0 17be d57a 163e
000000b0: 8da8 fe3d 53f2 babe 3686 1a3f bcdd acbd
000000c0: 70eb 08be c4ee c53e 6b52 00bf a5c3 073f
000000d0: 5c24 23be b85f eabd 04ba 7fbd 1437 273d
000000e0: b175 14be b03c 4ebd 01aa 853c 8c73 aabd
000000f0: 0d94 07be 2b4c 67bc d952 64bd db11 eb3d
00000100: e934 50be 847b 513e 8d39 6ebe ea1d 893e
00000110: bd10 1ebe 3c67 5abe f8c8 d53e 3cc8 fcbd
00000120: 8dcd 513e 1a26 79be 2d58 203e 0208 2ebd
00000130: f4b6 783e 05f1 f13d b43b 453d d3e7 a43d
00000140: eab3 403c c5bf 0a3e e6ad 22bd 013e 5d3c
00000150: 27f3 a0bd ba52 0e3b e422 8c3c 8cf1 12bc
00000160: 7808 923c 2299 bcbd 5c65 c33c 253e 96bd
00000170: 5a7d 023e 9927 3cbc 0e1f 9fbd 4332 063e
00000180: 6a75 133e e364 8b3e 9a4e e1bd a4e5 acbd
00000190: 1fca 42bd 9e92 273d b626 093b a6b2 dabc
000001a0: ec86 a4bc 9c55 153b 7316 26be f91f 94bd
000001b0: d7fa 803d 1771 9abe 1ae7 d1bd b869 acbe
000001c0: 8a73 9e3e caed 013f a7b0 a73e 79df 1e3e
000001d0: 3f62 adbe d562 423d 700a 213d 12f3 cdbc
000001e0: 44c6 1dbb ff98 ddbc d414 333d 10d7 693c
000001f0: 0cf4 1f3e 16f6 853d a8f1 d8bd 5dc6 013d
00000200: 84d6 98bd 4926 373e f145 e5bd 5c05 5cbc
00000210: 448e 01bd e3b9 68bd d32b 1f3d 4d07 0ebe
00000220: 9b59 4e3e 2944 803d 6b70 423c 1070 af3d
00000230: 9a31 2cbe 172f 263e 8f9e 11be fe03 52be
00000240: 0b92 62bd 3fc4 7c3d f74e 90bd 6911 bdbd
00000250: 4ca7 a63c e894 943d 92ca 55bd aa55 37be
00000260: 5aac 2a3e 2c9d e5bd 02cd f8bc bf99 c7bc
00000270: a7af 37bd 4781 cabd e9ba b63d df38 583c
00000280: 552b c43c 7f1c 38be d3e5 183e 5943 3ebe
00000290: d0e4 e5bd a517 473d 00f6 b6bd 7b90 093e
000002a0: e5db 383e a803 80be 0aa7 453e 11fe e93e
000002b0: 4be0 c5be 601c 84bd d9b9 403e 2a0a c53e
000002c0: 93d9 bfbe 25f9 debe 861b c93e dd2f 45bd
000002d0: eb99 8ebd b6a7 08bf 1188 183e d841 c53e
000002e0: a3dd 553e 9a8b 64be 248e 89be f79b 163e
000002f0: dcb1 b33c bef8 dbbd ccff f13d f1f1 0c3c
00000300: a4b9 adbd 9e03 083e 16f9 abbd c837 c63d
00000310: 3e63 87bd d4ed eebd 7276 4d3e 07f9 fabd
00000320: 33c6 e13d 9b8e 9cbd fce7 01bd f41a 7e3d
00000330: c1e7 08bd bd0d b1bc c2fe 193e 0d42 a6be
00000340: 264f c53d 047d 4fba 4f8b 26be 5d4e 9f3d
00000350: 7579 0c3c 4a4e 70bd 3255 7f3e 2c8e af3c
00000360: f636 833e d1bb eb3d ec78 9b3d c9e4 283d
00000370: 171e a0bd 1c9f eebd 6c26 abbe ac5c d5bc
00000380: 4dd1 013d 8f73 08bd 7911 103c 5959 2c3c
00000390: 6972 1abe cd19 5dbe 82ad cfbd 6a72 5b3e
000003a0: 45ec c93d 7cfb b63d d395 223e 0a19 0f3d
000003b0: 6137 183e 924a dd3d bdbc fcbc 18b5 90bd
000003c0: 4552 873e f0ef 5d3c e27e eabc a8ab 43be
000003d0: 26cd 96bd 50bf 18bd f78b 5d3e b5df e03c
000003e0: 6bb4 5dbe f995 3a3e d164 443e ca75 d53d
000003f0: 834c e03c 6300 afbd bf9d bbbd a889 67be
0.032299045 -0.0010576836 -0.011127168 -0.06408576 0.08857009 -0.012913104 0.01504669 -0.17323776
0.073702976 0.025782986 0.047883727 -0.03994202 -0.033721354 -0.03805566 -0.08594603 -0.05318746
-0.02484811 0.07638818 0.029825045 -0.027230458 0.030874472 0.010691923 0.00618089 -0.12082149
-0.32934776 0.0032929063 0.060063947 -0.0016647566 0.060537405 -0.03011958 -0.036505934 -0.050086197
-0.015627746 0.0050682425 0.014912914 -0.16019408 0.08591881 -0.050453838 -0.1861213 0.0026677453
-0.11177717 0.039033327 -0.14831923 0.14695294 0.12434492 -0.36513004 0.6036104 -0.0844073
-0.13371062 0.38658726 -0.5012576 0.53032905 -0.15931839 -0.11444038 -0.062433258 0.04082401
-0.1449802 -0.050350845 0.016316416 -0.0832282 -0.1324007 -0.014117281 -0.055743072 0.11478015
-0.20332684 0.20457274 -0.23264141 0.26780635 -0.15436073 -0.21328443 0.4175489 -0.12342879
0.20488568 -0.24330941 0.15658636 -0.042488106 0.24288541 0.11813549 0.04815264 0.080520295
0.011761645 0.13549717 -0.039716624 0.013503552 -0.07858878 0.002171679 0.01710648 -0.008968722
0.017826304 -0.09208895 0.023852043 -0.07336072 0.1274313 -0.01148405 -0.07769595 0.13105111
0.14400259 0.27225408 -0.1100132 -0.08442238 -0.04755604 0.04091131 0.0020927615 -0.026696514
-0.020083867 0.0022786623 -0.16219501 -0.07232661 0.06297844 -0.30164406 -0.10249157 -0.33674407
0.30947524 0.5075346 0.32751963 0.15514936 -0.33864018 0.047457535 0.039316595 -0.025140319
-0.0024074474 -0.027050493 0.043721035 0.014272466 0.1562044 0.06541078 -0.10592967 0.031683315
-0.074627906 0.17885698 -0.11194981 -0.013429012 -0.031629816 -0.0568179 0.038860153 -0.13869973
0.2015137 0.062630005 0.011867623 0.08566296 -0.16815796 0.16228901 -0.14220642 -0.20509335
-0.05531506 0.061710592 -0.07046311 -0.09231836 0.020343445 0.07254964 -0.05219514 -0.17903772
0.1666731 -0.11211619 -0.030371193 -0.024365304 -0.04484525 -0.09887939 0.08922369 0.013197153
0.023946444 -0.1797962 0.14931421 -0.18580379 -0.11225283 0.048606534 -0.089336395 0.13434021
0.18052633 -0.2500279 0.19302002 0.4570165 -0.38647684 -0.064507246 0.18820895 0.38484317
-0.37470683 -0.43549457 0.3927881 -0.04814135 -0.06962951 -0.53380907 0.14895655 0.38526797
0.20885329 -0.22318879 -0.26866257 0.14707933 0.021935396 -0.10740803 0.118163675 0.008602605
-0.08482674 0.1328263 -0.08397119 0.09678608 -0.06610726 -0.11666456 0.20064715 -0.122545294
0.110241316 -0.07644387 -0.03171538 0.062037423 -0.033424143 -0.021612996 0.15038589 -0.32472268
0.09634237 -0.0007915052 -0.1626408 0.077786185 0.0085738795 -0.058668412 0.24934843 0.021430098
0.2562787 0.115104325 0.075914234 0.04123381 -0.07818239 -0.116514415 -0.3342775 -0.026045166
0.031693745 -0.03331333 0.008793228 0.010519349 -0.15082707 -0.21591873 -0.10140516 0.21430364
0.09859518 0.089346856 0.15877466 0.03493599 0.14864875 0.10805239 -0.030851716 -0.07065791
0.26429954 0.013545975 -0.028624956 -0.1910845 -0.07363348 -0.037291825 0.21635424 0.027450422
-0.21650855 0.18221273 0.19179083 0.10422857 0.027380234 -0.08544996 -0.09160947 -0.22611105

deconv3.conv2d.bias f4 [3]
00000000: f005 b4bd 08ad 18be c67a 103f
-0.08790195 -0.14909756 0.5643734

deconv3.conv2d.weight f4 [3, 8, 9, 9]
00000000: 125b 44bd 07de 6d3d f647 713a 93c6 5fbd
00000010: 85e7 28be eda7 ea3d 9ad1 fb3d 16b1 4bbc
00000020: b6b6 a9bd 4183 26bd 97b6 a23d 5a51 06bb
00000030: 531c a5bc 4e4a a4ba 376f 5a3e 632b 92bd
00000040: c1da b4bd e107 013c 3963 aa3b 6a8f 153c
00000050: 4b5b 513c 4d15 b6bd 021a bfbe cc35 083f
00000060: 5b0e 67be 91ea a8bc 0be2 8abd be91 7a3d
00000070: 19a9 813d e9ee 7cbd 0057 06bf 9afe da3e
00000080: c1d6 b53f 6dc9 7bbf c8c3 c63e e431 66bd
00000090: 414f ad3d 6b84 3f3d 3f0f 45be c7c5 1c3e
000000a0: a6f2 bf3f 3631 00bf a101 75bf eda3 d63e
000000b0: 3049 15bc 1a6e 98bd edf7 52bd 40f4 02be
000000c0: 3479 893e d083 a93e 1009 7cbf 9046 b43d
000000d0: 6727 883e 04ff 83be 8f55 a2bc 184a 993d
000000e0: 21ff 963d d2fb 793e 23f3 33bd 56fc 83be
000000f0: cbf9 f13d aca2 54bd 51d8 6c3d 7550 593d
00000100: 1014 ab3d 3b12 073d 4959 4c3d 0622 f7bd
00000110: 477f b3bd 7ec3 2ebd 94b8 783d 9780 23bb
00000120: 09de 1abd 99a5 e43d e170 cb3b 045b b9bd
00000130: ae34 7a3d 8584 683d 28f5 24bd f1dc d93d
00000140: d7ec 9fbd d9c1 093d ec66 eebd d5d7 ae3c
00000150: 03b9 60be 8def 3bbc 39b8 79bd f4c1 b4be
00000160: e37e 61bd 33e1 87bd 4dd5 2b3c b1be f4bd
00000170: 2d6c 973d 63b1 2cbe 3c4e fdbd a7df 9d3d
00000180: 1bef 0abe 4713 20be e63a 1abe 62a4 1e3c
00000190: 632d 83bc 98cd aa3d 0fde b63b 5e05 4fbe
000001a0: 2918 b2be bbec bcbe 0205 ccbd 20e3 65be
000001b0: 23d6 b3bd 9559 1bbe 029b c13d 6e92 513d
000001c0: 34a5 9f3d d3d8 fbbe cf7f 43bf 1bcc 33be
000001d0: ca28 fdbd 8405 e03d 6b97 89bd 2d4d 7ebe
000001e0: c334 153e 3d98 8d3e b742 e9be 4109 7fbf
000001f0: eac8 0abf 3763 ee3d ad9c 6e3d 1b0b cd3d
00000200: f09f 47be b956 94be 5cfd 8b3e 423d cc3e
00000210: 6e3f 893d 5ea0 05be dad0 e4bd 0647 26be
00000220: 96c0 9e3d 6931 79bd 9811 efbe 03c3 56be
00000230: fa7c bb3d 101a f9bd 98e2 06bd b942 dcbd
00000240: cd69 9ebd 2c5c 29bc 3922 ef3d 412a 97bb
00000250: fb55 04be 060a 77be 4f7f b2be 6ac5 b3bd
00000260: 8686 16be 5068 a33d d31f 60be 3b10 2cbc
00000270: 2faa 6a3d 57b5 a23d 8e18 dabd 84f6 a3bd
00000280: fe21 6bbc 1026 f6bd 563a 6b3d 4f04 453e
00000290: 55ce 093d 867d 623e 9ee5 ce3d d4ac c73d
000002a0: f67b 113e 1316 df3c bf23 ff3d d238 95bd
000002b0: ebb3 7bbc 0802 80bb e1e2 0e3e f35f 0a3e
000002c0: bd9e 203e afdc 643e df75 15be 8e4f 33bd
000002d0: a1d7 11bd 0a13 0ebd 677d df3d dd73 083e
000002e0: c116 9c3e e03b 423f c777 c93e 6485 59be
000002f0: 8c99 153e 5d3b a6bd f516 1ebc c088 0c3e
00000300: e723 013e 46ee 553f f73f bc3f 46e7 883e
00000310: d287 04be 9a8f 293e bf05 3cbc a5f2 06bd
00000320: ea70 233e 979d cf3e 9ddf 7d3f 85ea 823f
00000330: 3ce1 f03d bd24 08bb dedb 493e c47f f2bb
00000340: f3b2 8cbd 908c 843e c395 1b3f 81fd 2c3f
00000350: a73f 1f3f 5c4e 143e cedd bdbd f6b1 3f3e
00000360: 7a83 bd3c 6d59 91bc 65bf 663e 41de fd3e
00000370: 3c45 f53e d96d ec3e 009c 843e 14c0 b4bd
00000380: 9886 993d ff7f f53d 7349 edbb a4ee 3cbd
00000390: 78c0 493e be3c 4c3e 9166 573d 162a 243e
000003a0: 9649 6f3d b8c2 ad3d 640f 653d 561d 0e3e
000003b0: e42e 28bd 7452 cb3d 791b 0f3e 260f 033e
000003c0: 42e0 6f3c e149 54bd db2b 823d ada4 383e
000003d0: 84b1 73bd 198f 133c cc30 303c 78f0 b73d
000003e0: 6f22 5f3d 7a19 afbd 662c afbd 7749 913c
000003f0: 1819 43bd 702c ed3c 6bcb 0f3d a97d 02be
-0.047938414 0.05807307 0.00092041434 -0.054632735 -0.16494568 0.114578106 0.12295838 -0.012432357
-0.082868025 -0.040652517 0.079449825 -0.0020495267 -0.020155108 -0.0012534352 0.21331488 -0.071371816
-0.088307865 0.007875414 0.0051998165 0.009128431 0.012778114 -0.088907816 -0.3732453 0.5320709
-0.2256407 -0.020619662 -0.067813955 0.061174147 0.06331081 -0.06175128 -0.524765 0.4277237
1.4206163 -0.98354226 0.38821244 -0.056199923 0.08462382 0.046757143 -0.19244097 0.15309821
1.4995925 -0.5007509 -0.9570561 0.4192194 -0.009111688 -0.07442875 -0.05150597 -0.12788486
0.26850283 0.33108377 -0.9845133 0.08802521 0.26592562 -0.257805 -0.019816188 0.074848354
0.07372881 0.24412468 -0.043933045 -0.25778455 0.11815222 -0.05191295 0.057823483 0.053055245
0.08353436 0.03297637 0.049889836 -0.12067036 -0.087645106 -0.042666905 0.060722902 -0.0024948472
-0.037809405 0.11164398 0.0062085246 -0.09050563 0.061085396 0.056767005 -0.04027286 0.10637844
-0.078088455 0.033632133 -0.116407245 0.021343151 -0.21945576 -0.011470688 -0.060966704 -0.35304224
-0.05505265 -0.0663475 0.010487867 -0.11950434 0.0739368 -0.16864543 -0.12368438 0.07708674
-0.13567774 -0.15632354 -0.1506153 0.009682747 -0.016012853 0.08339995 0.0055806707 -0.20216891
-0.34784058 -0.3689936 -0.09961893 -0.22449923 -0.08781078 -0.15170892 0.094533935 0.051165037
0.07795182 -0.4918886 -0.76366895 -0.17558329 -0.123612955 0.10938552 -0.06718334 -0.24834128
0.14570908 0.2765521 -0.45558712 -0.99623495 -0.5421282 0.116400175 0.058254886 0.10011884
-0.19494605 -0.28972414 0.27341735 0.39890486 0.067015514 -0.13049456 -0.11172648 -0.16238031
0.077515766 -0.060838137 -0.4669311 -0.20972829 0.09154697 -0.12163174 -0.03293094 -0.10754914
-0.07735024 -0.010336917 0.11676449 -0.0046131914 -0.12923424 -0.24124917 -0.34862754 -0.08777888
-0.14699754 0.079788804 -0.2188714 -0.0105019165 0.057291206 0.07944744 -0.10649215 -0.080060035
-0.014351366 -0.120189786 0.05742868 0.19239925 0.03364404 0.22118196 0.1010239 0.09749761
0.14207444 0.027232205 0.1245799 -0.07286228 -0.01536272 -0.003906492 0.13953735 0.13513164
0.15685554 0.22349809 -0.14595746 -0.04377704 -0.03560603 -0.034686126 0.109125905 0.13325448
0.3048611 0.7587261 0.39349195 -0.2124229 0.14609355 -0.081167914 -0.009649028 0.13724041
0.12611352 0.835667 1.470702 0.26738948 -0.12942436 0.16558686 -0.011475979 -0.032946248
0.15961042 0.4054992 0.9916933 1.022782 0.1176171 -0.002077385 0.19712779 -0.0074004848
-0.06870069 0.2588849 0.60775393 0.67574316 0.622065 0.14483017 -0.092708215 0.1872023
0.023133982 -0.017742837 0.22533949 0.4958363 0.47904384 0.46177557 0.2590027 -0.088256985
0.07496375 0.11987304 -0.007241422 -0.046126023 0.19702327 0.19945046 0.05258805 0.1603168
0.058419786 0.08484405 0.05592288 0.13878378 -0.041060343 0.09927836 0.13975324 0.12798747
0.01464087 -0.05182827 0.06356021 0.18031569 -0.059495464 0.009006285 0.010753822 0.08981413
0.054476198 -0.08549781 -0.0855339 0.017735226 -0.047631353 0.028951854 0.035106104 -0.12743248

in1.bias f4 [8]
00000000: 2b7a 883e 5236 3d3f 0268 9e3f 357e c53d
00000010: 2abc 2240 e831 fabd 93b8 bb3f 40db c33f
0.26655707 0.7391101 1.2375491 0.09643213 2.5427346 -0.1221655 1.4665703 1.5301285

in1.weight f4 [8]
00000000: 9949 d73e f72d 093f 5fa2 ad3e abd4 753e
00000010: 5536 1b3f 83d8 863e bec4 ae3e 7a09 033f
0.42048338 0.5358576 0.33912942 0.24006908 0.6062978 0.2633706 0.34134477 0.51186335

in2.bias f4 [16]
00000000: a2ca a13e e518 053e cf26 093e 6a3c e13e
00000010: a506 903e 1cf9 3440 62d8 33be 9555 b6bc
00000020: 40d4 9b3e fc32 d53d c1b3 9bbd a62a dd3e
00000030: da99 69bd 28cc 39bd e43f da3f 0a59 1dbe
0.3159991 0.12997778 0.1339371 0.43991405 0.2813007 2.8277044 -0.17563012 -0.022257606
0.3043537 0.10410115 -0.07602645 0.431966 -0.05703149 -0.045360714 1.7050748 -0.15365997

in2.weight f4 [16]
00000000: fb8b 253f bf7d e63e 9e37 db3e d9f6 c33e
00000010: 8d8e ce3e 7e80 be3e bd22 293f 78fc 133f
00000020: dcfb c13e 2f2d 5a3f 38e7 183f 41d1 293f
00000030: 6120 203f 11bd 033f 79c9 b23e bbb9 cd3e
0.6466672 0.45017812 0.4281587 0.38274267 0.40343133 0.37207407 0.6606863 0.5780711
0.37887466 0.85225195 0.5972781 0.6633492 0.62549406 0.5146037 0.34919336 0.40180764

in3.bias f4 [32]
00000000: bd95 cf3d e132 6f3c ff31 0f3e cf20 84bd
00000010: 59d1 ae3c 85cc b0bc ab6a 93bc 96d3 0cbe
00000020: 6359 fc3d 05e8 0cbe 00ff 0aba 202c e9bd
00000030: b075 12be 26a4 ba3d ae9c 633b 84d4 263e
00000040: 9b8e c3bd 472d 6fbd 72d8 57be 3935 3fbd
00000050: 08cc d43e fa70 d13d cbcc f7bc 3b4e 44bd
00000060: f24e eb3c 1a15 1a3e 2958 2f3d e28b 513e
00000070: c761 af3e c119 233e fa61 403e d2e1 f8be
0.10135982 0.014599533 0.13983916 -0.0645157 0.02134006 -0.021581898 -0.0179952 -0.13752589
0.12321737 -0.13760383 -0.000530228 -0.11385369 -0.14302707 0.0911334 0.003473084 0.16292006
-0.09548684 -0.05839279 -0.21078661 -0.046681616 0.41561913 0.10226627 -0.03024902 -0.04792617
0.028724167 0.15047112 0.042808685 0.20463517 0.34254286 0.15927793 0.18787375 -0.48609787

in3.weight f4 [32]
00000000: 4d07 b43e bc15 543e ecd0 303e db36 433e
00000010: c94e 983e 686b 2d3e dbb3 9c3e 8d18 fe3e
00000020: 062b 4d3e c68a ba3e d875 623e af54 013f
00000030: 39c5 733e d61c 773e 2c6a 9e3e 2ac1 f93d
00000040: 61df a33e 192c 4c3e 35ee 993e d159 743e
00000050: b750 213e f783 6d3e f62d 843e d135 ff3e
00000060: 97d7 7c3e f570 3f3e 6b9a 593e c110 db3e
00000070: 3d00 433e ab63 533e baba 403e 8711 2e3f
0.3516182 0.20711416 0.17267197 0.19063894 0.29747608 0.16935503 0.3060597 0.49628106
0.20035943 0.36434 0.22115266 0.5051984 0.23805703 0.24132094 0.30940378 0.12195046
0.32006362 0.19938697 0.3006455 0.23862387 0.15753447 0.23194872 0.25816315 0.49845746
0.24691616 0.18695433 0.21250312 0.4278622 0.1904306 0.20643489 0.1882123 0.67995495

in4.bias f4 [16]
00000000: d109 ebbe 3e17 1cbe e68e f3be 9e0b 3ebf
00000010: 84a0 d9be 30df f1be 3ae2 933f a976 95be
00000020: 7f9b 60be bd44 a5be 9941 3a3f 00fa ad3d
00000030: 0811 0abf a9d4 0a3f 4699 24be 65c1 1b3f
-0.45905927 -0.15243241 -0.4756996 -0.74236476 -0.42505276 -0.4724059 1.1553414 -0.29192093
-0.21934317 -0.32279006 0.72756344 0.08494949 -0.5393224 0.54230744 -0.16074094 0.6084197

in4.weight f4 [16]
00000000: c6bb b63f adb3 af3f c03b a43f d248 cf3f
00000010: 02fa 983f cd2f 953f 89dd 473f d61d 9b3f
00000020: fe79 b53f 5955 d13f 669e 643f 45aa 953f
00000030: 43a8 a53f 08f1 b03f 800d 563f 2cd7 7f3f
1.4276054 1.3726708 1.2830734 1.6194098 1.1951296 1.1655213 0.7807241 1.211848
1.4177854 1.6354171 0.89304197 1.1692587 1.2941974 1.3823557 0.8361435 0.999377

in5.bias f4 [8]
00000000: a371 86be 2199 a23f 5739 193f 6d02 14bf
00000010: c893 e63d 9a0f 673b 9da1 2d3f d5e5 9b3f
-0.26258573 1.2702981 0.5985312 -0.578162 0.11258656 0.0035257102 0.6782473 1.2179514

in5.weight f4 [8]
00000000: a18e 0540 e2fe ad3f 0333 db3f cc4c 4b40
00000010: 841f b13f 3909 1440 0857 ad3f 6a82 f93f
2.0868304 1.3593409 1.7124943 3.1765623 1.3837743 2.313063 1.3542185 1.9492924

resnets.0.conv1.conv2d.bias f4 [32]
00000000: bb36 1d3e b259 a43e 73ce d9bd 44f8 16be
00000010: 1c08 b9be 22a7 cfbe 300d 38be 0bba 83bc
00000020: 583f 8fbe f9c8 da3e a8ac 63bd c29e 233d
00000030: b642 353d 266c 403e 5d1b f1bd b6e6 a2bc
00000040: 510f 4a3e 0455 75be 29e8 4dbe ef8b 863e
00000050: 587f 4bbe 022c 1ebe 580a 51bc b706 6abd
00000060: 6ba0 aebd 403f 1d3e 1892 ae3d f049 c63d
00000070: 8780 51be 5fab 09be cc9d 863d afdc 33be
0.1535291 0.32099682 -0.1063508 -0.14743143 -0.36139 -0.405572 -0.1797378 -0.016079923
-0.27978015 0.42731455 -0.05558458 0.039946325 0.044253074 0.18791255 -0.11772797 -0.019885402
0.19732405 -0.23958212 -0.20108093 0.26278636 -0.19872797 -0.15446475 -0.012758814 -0.05713531
-0.08526691 0.15356159 0.08523959 0.09682071 -0.20459186 -0.13444279 0.06573066 -0.17564653
