AIGamedevToolkit_Demo/Assets/AIGamedevToolkit/InferenceEngines/Barracuda/InferenceFeatures/StyleTransfer/Models/mosaic.onnx (onnx, 443727 bytes, 64 tensors)

141 f4 [4]
0	0x3f800000	1.0
1	0x3f800000	1.0
2	0x40000000	2.0
3	0x40000000	2.0

142 f4 [4]
0	0x3f800000	1.0
1	0x3f800000	1.0
2	0x40000000	2.0
3	0x40000000	2.0

conv1.conv2d.bias f4 [8]
0	0x3e13aa5c	0.14420456
1	0xbd6c1232	-0.05763454
2	0x3db9e188	0.0907622
3	0x3dad8b95	0.08473889
4	0xbd856858	-0.065140426
5	0x3d36df87	0.044646766
6	0xbd1c1862	-0.03810919
7	0x3db46507	0.08808332

conv1.conv2d.weight f4 [8, 3, 9, 9]
0	0xb81f0441	-3.7912516e-05
1	0x3de172f5	0.110082544
2	0x3d30c6fa	0.04315851
3	0xbd0d14b5	-0.034443576
4	0xbd1ea02e	-0.038726978
5	0xbdde486e	-0.108536586
6	0xbcf08127	-0.02935846
7	0x3d54e4be	0.051975958
8	0x3d136ded	0.035993505
9	0xbb0ad0bf	-0.0021181551
10	0xbdd53910	-0.104112744
11	0xbd5ce8c4	-0.05393292
12	0xbe259853	-0.16171388
13	0xbe79ce13	-0.24395017
14	0xbe483159	-0.19550075
15	0x3cb1d317	0.0217071
16	0xbc3d72f7	-0.011563054
17	0x3ca77626	0.02044208
18	0xbdabac34	-0.083824545
19	0xbd8c6f1e	-0.068571314
20	0x3b909e93	0.004413435
21	0xbdeed646	-0.11661963
22	0xbda1fdd3	-0.07909741
23	0x3d911df4	0.07085791
24	0x3de34c02	0.11098482
25	0xbda46eb6	-0.08028929
26	0xbc8fa6f3	-0.017535662
27	0xbd98f762	-0.074690595
28	0x3ccb5b2c	0.024823748
29	0xbcbd1a32	-0.02308378
30	0x3dcd5ea9	0.100278206
31	0x3ebcc128	0.36866117
32	0x3f2e2280	0.6802139
33	0x3e8c3ae0	0.27388668
34	0xbde2dbd0	-0.11077082
35	0x3d1e6459	0.038669918
36	0xbd8a6f50	-0.067595124
37	0x3cacf8cd	0.021114731
38	0x3e191b20	0.14951754
39	0x3de0f034	0.10983315
40	0xbda848b6	-0.082169935
41	0x3ea24b2d	0.3169798
42	0x3e82768f	0.25481078
43	0x3ce3a790	0.027789861
44	0xbab896b9	-0.0014083005
45	0xbc5e3a7b	-0.0135637475
46	0x3d831fa5	0.0640252
47	0x3e49a22e	0.19690773
48	0x3d78ad0c	0.060711905
49	0xbed37368	-0.41298985
50	0xbe57835b	-0.21046202
51	0xbd4a464e	-0.049383454
52	0x3d64e4b4	0.05588217
53	0x3cb1a593	0.021685397
54	0xbd30abcd	-0.043132592
55	0x3d1ad2ef	0.03779882
56	0x3d0cc6b7	0.034369197
57	0xbdabb015	-0.08383194
58	0xbe6c0b07	-0.23051082
59	0xbe02750a	-0.1273996
60	0xbd5c4e6c	-0.053785726
61	0xbde58e1b	-0.11208745
62	0xbd83484c	-0.06410274
63	0x3cec1538	0.028818712
64	0x3b95a705	0.0045670294
65	0x3b61db8c	0.0034463136
66	0xbd3b2eb2	-0.04569883
67	0xbcf0e730	-0.029407114
68	0xbdcfdcff	-0.101495735
69	0xbd3909f5	-0.04517551
70	0xbdcc71b0	-0.09982622
71	0xbd1e5b67	-0.038661387
72	0x3d66ba8b	0.056330245
73	0xbd45ed51	-0.048322026
74	0x3c88a72a	0.016681273
75	0xbd2bed78	-0.041974515
76	0x3d29e806	0.04148104
77	0xbb6684e8	-0.0035174433
78	0xbca17a7f	-0.019711731
79	0x3bf426be	0.0074509075
80	0x3c1ee6b9	0.009698563
81	0x3c9b0130	0.018921465
82	0x3ce1bd29	0.027556019
83	0xbdaede52	-0.08538498
84	0xbdc85b4a	-0.09783037
85	0xbd0732d8	-0.033007473
86	0xbcefcaa2	-0.029271428
87	0xbd0cb630	-0.034353435
88	0x3d2955cf	0.0413416
89	0x3d05e7ea	0.032691874
90	0x3e34345d	0.175981
91	0x3d121c57	0.03567156
92	0xbc3a2cb2	-0.011363195
93	0xbc88dcd3	-0.01670686
94	0xbdae2a90	-0.08504212
95	0xbe034271	-0.12818314
96	0x3dcd0c59	0.10012121
97	0x3da897d2	0.082320824
98	0x3e07e1cf	0.13269733
99	0x3c60d9d7	0.013723812
100	0xbcc29f54	-0.023757614
101	0xbbeff9bc	-0.007323472
102	0xbd2b3d56	-0.04180654
103	0x3d84b926	0.06480627
104	0x3e403fdb	0.18774359
105	0x3e457447	0.19282638
106	0x3c9677f6	0.018367749
107	0x3d827c3d	0.06371353
108	0x3bd2535a	0.0064186277
109	0x3d044f7b	0.03230236
110	0xbd07e825	-0.033180375
111	0xbcfb2cff	-0.030661104
112	0x3ebfb497	0.37442467
113	0x3f4bc4fd	0.79597455
114	0x3e8039cd	0.25044098
115	0x3c2d7b55	0.010588487
116	0xbd448497	-0.04797801
117	0xbce554e1	-0.027994575
118	0xbd622b26	-0.05521693
119	0xbd88a795	-0.06672589
120	0xbdb4dcb3	-0.088311575
121	0xbeaf0080	-0.3418007
122	0x3eabeee2	0.3358069
123	0x3e27e008	0.16394055
124	0xbd58d85a	-0.052940704
125	0xbd7e3e78	-0.062071294
126	0xbcdd6155	-0.02702395
127	0xbaf6ee7b	-0.0018839383
128	0xb9750859	-0.0002336813
129	0xbe16377e	-0.14669606
130	0xbf137d2a	-0.5761286
131	0xbdee60bf	-0.116395466
132	0x3d3e24d8	0.046421856
133	0xbc86bbce	-0.016446974
134	0xbc0bd876	-0.008535495
135	0xbd019eac	-0.031645462
136	0x3d1e182d	0.038597275
137	0xbd966c04	-0.07344821
138	0xbd98c116	-0.07458703
139	0xbe2fdd14	-0.17174178
140	0x3d201652	0.039083786
141	0x3cb5a4a0	0.022173226
142	0xbc6438fb	-0.013929601
143	0x3b2f36c2	0.002673552
144	0x3cf1617c	0.02946543
145	0xbc9e5f19	-0.019332455
146	0xbda381a7	-0.079837136
147	0xbd160eb1	-0.036635105
148	0xbda86260	-0.082218885
149	0xbdbdf71e	-0.092756495
150	0xbde44fb9	-0.111480184
151	0x3d16769d	0.036734212
152	0x3d8bbedb	0.06823512
153	0x3d902991	0.07039178
154	0xbd4d3ab4	-0.05010481
155	0xbc93bbe3	-0.018033927
156	0xbc2add6b	-0.010428767
157	0x3bbd3840	0.005774528
158	0xbb78f5f3	-0.0037988394
159	0x3c09fe28	0.008422412
160	0x3ae10443	0.0017167408
161	0x3c902aea	0.017598588
162	0xbd526ec9	-0.051375184
163	0x3c2f0a05	0.010683541
164	0x3da15838	0.078781545
165	0x3cddc477	0.02707122
166	0x3d6a8a3d	0.05726074
167	0x3ce6d488	0.028177515
168	0xbe0d94f1	-0.13826348
169	0xbd8c7b2f	-0.06859433
170	0x3ca6fa2d	0.020382965
171	0x3b807be9	0.0039210212
172	0xbd0507ce	-0.032478146
173	0xbcd1e6bd	-0.02562272
174	0x3cf8cfe0	0.03037256
175	0xbdc0adad	-0.09408126
176	0xbdae3e98	-0.085080326
177	0xbd3b134b	-0.045672696
178	0xbc819113	-0.015816247
179	0xbd8a5570	-0.06754577
180	0x3cfc8eab	0.030829748
181	0x3c30d5d2	0.010793166
182	0xbd10de71	-0.035368387
183	0xbdddefe6	-0.108367726
184	0xbdf38a15	-0.118915714
185	0x3dbf5919	0.09343166
186	0x3d942505	0.072336234
187	0xbdea2aba	-0.11433931
188	0xbd3bf36c	-0.045886442
189	0xbbf7c495	-0.007561276
190	0xbbb1b27b	-0.005422888
191	0xbdd3fd2b	-0.10351022
192	0xbe4074f0	-0.18794608
193	0x3dd98a24	0.10622051
194	0x3ef72503	0.48270425
195	0x3d78c97a	0.060739018
196	0xbe8ad7e7	-0.27117845
197	0xbdbca31b	-0.092107974
198	0xbda3a88a	-0.07991131
199	0xbd990262	-0.074711576
200	0xbe2747bf	-0.16335963
201	0xbdf1239b	-0.11774369
202	0xbe89c9ed	-0.2691187
203	0x3e5457f9	0.20736684
204	0x3d8d9989	0.0691405
205	0xbd74fec2	-0.05981327
206	0xbe1c460e	-0.15261099
207	0xbcf3cd6c	-0.029761039
208	0xbae8ad29	-0.0017751801
209	0x3dff2ad2	0.12459339
210	0x3d310164	0.043214217
211	0xbebfd18b	-0.37464556
212	0x3c8f0ba3	0.017461604
213	0x3dbc35fd	0.09189985
214	0x3dcf08fb	0.10109135
215	0x39bd0b2b	0.0003605721
216	0xbd8e01a8	-0.0693391
217	0x3d027cc3	0.031857263
218	0x3cf019d9	0.0293092
219	0x3d0f01be	0.03491377
220	0x3de96e6f	0.11398017
221	0x3e77f189	0.24213232
222	0x3e7a956e	0.24471065
223	0x3e0c0fea	0.13677946
224	0x3d2461f2	0.04013247
225	0xbd411e42	-0.047147997
226	0x3beba89d	0.007191731
227	0x3dbde3d6	0.09271972
228	0x3c8627f1	0.016376467
229	0x3dcdcf2e	0.10049282
230	0x3e29f8f3	0.16598873
231	0x3d731769	0.059348498
232	0x3c90ef64	0.017692275
233	0x3d04cc4c	0.032421395
234	0x3d2559da	0.040368892
235	0xbd18534b	-0.03718881
236	0x3b297549	0.002585726
237	0xbd2e89c2	-0.042611845
238	0x3cbef796	0.023311418
239	0x3ca0e0bb	0.01963841
240	0x3cf4acd3	0.029867565
241	0xbde0b15c	-0.109713286
242	0xbc8bfeff	-0.017089365
243	0x3d4b1ebb	0.049589854
244	0x3d093a6f	0.033502992
245	0x3d61e968	0.055154234
246	0xbcc6aee3	-0.024253314
247	0xbccd31d7	-0.02504818
248	0xbcadc198	-0.021210477
249	0x3d99a578	0.07502264
250	0x3be66e28	0.0070321746
251	0xbc919603	-0.017771726
252	0x3c38c5ce	0.011277629
253	0x3c9d001c	0.019165091
254	0x3e245ae1	0.16050293
255	0x3dd99fe9	0.106262036

conv2.conv2d.bias f4 [16]
0	0x3e01bbaa	0.12669244
1	0x3d002430	0.03128451
2	0xbde15306	-0.110021636
3	0x3e06c5c8	0.13161385
4	0xbe4ca519	-0.19984855
5	0xbdb1a308	-0.08673674
6	0xbe1e489f	-0.1545739
7	0x3e089cb2	0.13341025
8	0xbd6f7680	-0.05846262
9	0xbd7f8f8a	-0.06239275
10	0x3beb5d09	0.0071827215
11	0xbd9fde9c	-0.07806131
12	0x3e359fbe	0.17736718
13	0x3ec124ae	0.37723297
14	0x3e192bbb	0.14958088
15	0xbde6e7f9	-0.11274714

conv2.conv2d.weight f4 [16, 8, 3, 3]
0	0xbe786ed0	-0.24261022
1	0xbe4171e5	-0.18891104
2	0x3d23a844	0.039955392
3	0x3d7e9161	0.062150363
4	0x3e8ae347	0.27126524
5	0x3e2615db	0.16219275
6	0x3e5eb3b9	0.21748246
7	0xbd024309	-0.03180221
8	0xbe250827	-0.16116391
9	0xbeb8bea9	-0.36082962
10	0x3e109a5b	0.14121382
11	0x3d4f307f	0.05058336
12	0x3d228090	0.039673388
13	0x3e3f93d7	0.1870874
14	0xbe12b770	-0.14327788
15	0x3e0611b1	0.13092686
16	0xbd73e7a2	-0.059547074
17	0xbe11c822	-0.14236501
18	0xbb0a0cc0	-0.0021064728
19	0x3e7d37d2	0.24728325
20	0x3e1b4669	0.15163578
21	0x3e36446d	0.1779954
22	0x3e939c5e	0.28830236
23	0x3dfb0d91	0.12258447
24	0x3e840b5c	0.25789917
25	0xbbb9d10a	-0.0056706714
26	0xbee0b198	-0.43885493
27	0xbe30a64a	-0.17250934
28	0x3d93bd18	0.07213801
29	0x3e158d61	0.14604713
30	0x3df258dd	0.118333556
31	0x3e256fb9	0.161559
32	0xbe02afe5	-0.12762411
33	0x3ceaac89	0.028646724
34	0xbdeedcc1	-0.11663199
35	0xbe0cb6a9	-0.13741554
36	0x3d33b335	0.043872077
37	0xbd2817ab	-0.041038197
38	0xbdb6e474	-0.08930293
39	0xbd5020cc	-0.050812528
40	0x3d4ef84b	0.05052976
41	0x3dfc16a0	0.12309003
42	0xbdea28aa	-0.11433537
43	0x3d04ddb7	0.032438006
44	0xbe0de4dd	-0.13856836
45	0xbe914393	-0.28371868
46	0xbdee8f0c	-0.11648378
47	0x3d59f0c9	0.053208146
48	0x3a6acd24	0.000895696
49	0xbdadf761	-0.084944494
50	0x3e309133	0.17242889
51	0x3d70d9dc	0.058801517
52	0x3d9f0307	0.07764249
53	0xbc0f048f	-0.008729114
54	0xbe2be12f	-0.1678512
55	0xbe203abd	-0.15647407
56	0x3d175a0b	0.036951106
57	0xbd97a9b3	-0.074054144
58	0xbdd94cd5	-0.10610358
59	0x3d009264	0.03138961
60	0xbccc9a18	-0.024975821
61	0x3e2c8b54	0.16850024
62	0x3dbafed7	0.09130638
63	0xbe7a1c93	-0.24424963
64	0xbe6f58e5	-0.23373754
65	0xbd02be15	-0.031919558
66	0xbe261aa7	-0.16221105
67	0x3e42afab	0.19012325
68	0x3e4124c3	0.1886168
69	0x3e7e36db	0.24825613
70	0x3e115602	0.14192966
71	0xbd69e6c5	-0.057104845
72	0xbe022e93	-0.12713079
73	0x3e9c9cbc	0.3058833
74	0xbe67c663	-0.22634272
75	0xbe64cb0c	-0.22343081
76	0x3eaeba41	0.34126475
77	0xbbe09f56	-0.006854932
78	0xbed6229d	-0.41823283
79	0x3ddb63fd	0.107124306
80	0x3e442083	0.19153027
81	0x3e1f7c03	0.1557465
82	0xbe8f54fd	-0.27994528
83	0x3dea110d	0.114290334
84	0x3ea48095	0.3212935
85	0xbe961eec	-0.29320467
86	0xbda6377b	-0.08116051
87	0x3e80e603	0.25175485
88	0xbe2f04dc	-0.17091697
89	0xbcca5a34	-0.024701215
90	0xbd8e2454	-0.06940523
91	0xbe722b49	-0.23649324
92	0xbe30926e	-0.17243358
93	0x3e985f03	0.29759988
94	0xbdcfd804	-0.101486236
95	0x3b88f561	0.004179642
96	0x3c68dbd2	0.0142125655
97	0xbd956038	-0.07293743
98	0xbe1af511	-0.15132548
99	0xbd27b907	-0.04094794
100	0x3c33a7cc	0.010965299
101	0x3e350526	0.17677745
102	0xbdddb704	-0.10825923
103	0xbde29d0b	-0.1106511
104	0x3e28ed5c	0.16496795
105	0x3d6bb557	0.057545986
106	0xbe795192	-0.24347523
107	0x3cd728ee	0.026264634
108	0xbdd5b948	-0.1043573
109	0xbd42985b	-0.04750858
110	0xbd198e8b	-0.037489455
111	0x3d7c1fef	0.06155389
112	0xbdf29039	-0.118439145
113	0xbe1dd84a	-0.15414539
114	0xbc83f2a0	-0.016106904
115	0xbe02158b	-0.1270353
116	0xbe1701b3	-0.14746742
117	0x3c1c0ae1	0.009524078
118	0x3cb51c5f	0.022108255
119	0xbdbb56f9	-0.09147448
120	0x3d455374	0.04817529
121	0x3d1b503c	0.037918314
122	0xbdd906f3	-0.105970286
123	0x3d695a85	0.05697109
124	0xbe06217d	-0.13098712
125	0xbe2225de	-0.15834758
126	0xbd8ab536	-0.067728445
127	0x3c24e69f	0.01006475
128	0xbc10ceb0	-0.008838341
129	0x3ca0c3a9	0.019624548
130	0xbc8aa671	-0.016925069
131	0x3ca32ea7	0.019919707
132	0x3cc97675	0.024592618
133	0xbd767052	-0.06016571
134	0xbd391b4a	-0.04519204
135	0xbdcbe222	-0.09955241
136	0x3de5afc5	0.11215166
137	0x3cca6f11	0.024711164
138	0xbe2a9e52	-0.16661957
139	0x3db986bd	0.090589024
140	0xbc8dfb58	-0.017331764
141	0xbe08419b	-0.13306277
142	0xbcf7b540	-0.030237794
143	0x3e3d296d	0.18472834
144	0x3e460c2f	0.19340585
145	0x3e7259d6	0.23667082
146	0x3e657345	0.22407253
147	0xbd354f74	-0.044265226
148	0x3c21c31c	0.009873178
149	0xbcafcf2f	-0.021461098
150	0xbd098215	-0.03357132
151	0xbe9ed548	-0.31022096
152	0xbe9f12e0	-0.31069088
153	0xbdfac0d2	-0.12243809
154	0xbd3af46f	-0.045643266
155	0xbd7e170c	-0.062033698
156	0x3da201a9	0.07910473
157	0x3dda87af	0.10670411
158	0xbe9522ef	-0.29128215
159	0xbd5378a8	-0.05162874
160	0x3bb16e3c	0.0054147523
161	0x3e594356	0.21217093
162	0xbe9c61cf	-0.30543372
163	0xbeabe293	-0.335713
164	0xbeff168d	-0.49821892
165	0xbe135000	-0.14385986
166	0xbe70532d	-0.23469229
167	0xbec02a09	-0.3753207
168	0x3e716b67	0.23576127
169	0x3d85ae66	0.065274045
170	0xbb270364	-0.0025484199
171	0xbdebd201	-0.115146644
172	0x3c9bf1de	0.01903623
173	0x3e43d880	0.19125557
174	0x3e09bf86	0.13451967
175	0xbe1d4207	-0.15357219
176	0xbe1221c2	-0.1427069
177	0xbbb18503	-0.0054174676
178	0x3c5ccd76	0.01347672
179	0x3b92f116	0.004484306
180	0xbd92a79d	-0.07160876
181	0xbdf591c5	-0.11990694
182	0xbdc71dc4	-0.09722474
183	0xbd4a8f59	-0.049453113
184	0xbe0d432a	-0.13795152
185	0xbdd9f510	-0.10642445
186	0x3e01e31b	0.1268429
187	0x3dcd7189	0.10031421
188	0x3d2831d6	0.041063152
189	0x3de8df87	0.113707595
190	0x3d9f41e8	0.077762425
191	0x3d46ddfe	0.048551552
192	0x3b88ce3c	0.0041749757
193	0xbcb97c0e	-0.022642162
194	0xbdbf6f48	-0.09347397
195	0xbd395f70	-0.045257032
196	0xbcdbf03f	-0.026847957
197	0xbe52a781	-0.2057171
198	0xbc24015c	-0.01001009
199	0x3d327fe7	0.04357901
200	0x3da3bb3c	0.079946965
201	0xbd075ede	-0.033049457
202	0xbdd9b2d9	-0.106298156
203	0x3c863d4e	0.016386654
204	0x3cd88c8c	0.026434205
205	0xbdc5e2fe	-0.09662436
206	0xbcf9354d	-0.030420924
207	0x3d44213e	0.047883265
208	0x3d9d64c0	0.07685232
209	0x3d51267f	0.051062103
210	0x3d4642f5	0.0484037
211	0x3e89a0cd	0.26880494
212	0x3ea1c07b	0.31592163
213	0xbdbc694a	-0.0919977
214	0xbeb167ff	-0.34649655
215	0xbe8e0d92	-0.27744728
216	0xbe098019	-0.13427772
217	0xbe281cb1	-0.16417195
218	0x3ea323ea	0.31863338
219	0x3ddb79e5	0.10716609
220	0xbe6e2134	-0.23254853
221	0xbe820ca7	-0.25400278
222	0x3ea3ed25	0.32016864
223	0x3e3c1e6c	0.1837098
224	0xbde93ec8	-0.11388928
225	0x3dc7a9b6	0.09749167
226	0x3e7ce708	0.24697506
227	0xbec533fa	-0.38516217
228	0xbe771b09	-0.24131407
229	0x3e24fac8	0.1611129
230	0x3e82df5d	0.25561038
231	0x3ce6e303	0.02818442
232	0xbe4ecd6c	-0.2019555
233	0x3db16761	0.08662296
234	0x3d5ff285	0.054674644
235	0xbdc36f0f	-0.09542667
236	0x3a9effd6	0.0012130688
237	0xbd5840fb	-0.052796345
238	0x3d1d48ba	0.038399436
239	0xbda917fb	-0.08256527
240	0x3da391e7	0.07986813
241	0x3e0770c9	0.13226618
242	0x3cfafe11	0.030638726
243	0x3dcab8f4	0.09898558
244	0xbe63396c	-0.22189873
245	0xbdc2f0b4	-0.09518567
246	0x3e09cd3b	0.13457195
247	0x3e59b2ef	0.21259664
248	0xbe18f099	-0.1493553
249	0xbe2a13ad	-0.16609068
250	0x3d06084b	0.032722753
251	0x3e344b9c	0.17606968
252	0x3e4502da	0.19239369
253	0x3e1889c6	0.14896306
254	0xbe55c690	-0.20876527
255	0xbd743df5	-0.0596294

conv3.conv2d.bias f4 [32]
0	0xbe0cac91	-0.13737704
1	0x3e064781	0.13113214
2	0x3ddc9afe	0.1077175
3	0xbe0b0edc	-0.13579887
4	0x3e23906c	0.15973061
5	0xbdd0f413	-0.102028035
6	0xbdb0e9c0	-0.08638334
7	0xbe022148	-0.12708008
8	0x3d95737a	0.07297416
9	0xbe23091a	-0.1592144
10	0xbe8656ba	-0.26238042
11	0xbe16c698	-0.14724195
12	0xbd29fc5f	-0.041500445
13	0x3db39d78	0.08770269
14	0xbda76ce4	-0.08175066
15	0x3e62e9e3	0.22159533
16	0x3e0f15af	0.13973115
17	0xbe05049a	-0.12990037
18	0x3daf1713	0.08549323
19	0xbec65cfa	-0.3874281
20	0x3e406fde	0.18792674
21	0xbe30673d	-0.17226882
22	0x3e0d52f1	0.13801171
23	0xbd2778a7	-0.040886547
24	0xbd8f53c9	-0.069984026
25	0xbe28f42f	-0.16499399
26	0x3cbf685e	0.023365196
27	0xbeae3bb5	-0.34029928
28	0xbd6930d7	-0.056931343
29	0xbeb2b66c	-0.34904802
30	0x3c9d4066	0.019195747
31	0xbdfc0305	-0.123052634

conv3.conv2d.weight f4 [32, 16, 3, 3]
0	0x3c04d6ff	0.0081079
1	0xbe03a3c9	-0.12855448
2	0xbed37acb	-0.4130462
3	0xbe05df21	-0.13073398
4	0xbf631382	-0.8870164
5	0xbdedcee9	-0.116117306
6	0xbe9e1cc0	-0.3088131
7	0xbf34f53b	-0.7068669
8	0xbe17cafa	-0.14823523
9	0x3bb114df	0.0054040994
10	0xbd599843	-0.053123724
11	0x3cde71e2	0.027153913
12	0xbd6fef9b	-0.058578115
13	0xbd8c097c	-0.068377465
14	0xbcaae2e8	-0.02086015
15	0x3d8dab7f	0.06917476
16	0x3dc13d50	0.094355226
17	0xbcd0f9c7	-0.025509728
18	0xbbf17abf	-0.007369369
19	0xbe1eeb88	-0.15519536
20	0xbd913e26	-0.07091932
21	0x3d550110	0.052002966
22	0x3c4d88f6	0.012544861
23	0xbe6295a4	-0.22127396
24	0xbd9de801	-0.07710267
25	0xbdbd057e	-0.09229563
26	0xbdbd2728	-0.09235984
27	0x3cbf4f1a	0.023353148
28	0xbde286ad	-0.110608436
29	0xbe5465bf	-0.20741938
30	0x3d2a8903	0.04163457
31	0xbe1b114a	-0.15143314
32	0xbe82e58d	-0.25565758
33	0x3cc87d5c	0.024473839
34	0xbd7c1c96	-0.0615507
35	0xbdd03c79	-0.10167784
36	0x3dd5f602	0.10447313
37	0xbdf9605f	-0.121765845
38	0x3bd8dc7b	0.00661808
39	0x3e144803	0.14480595
40	0x3cd057df	0.025432525
41	0xbe16825e	-0.14698169
42	0xbd5a7dce	-0.053342633
43	0x3d83a893	0.06428637
44	0xbd9b4581	-0.07581616
45	0x3e45b261	0.19306327
46	0xbd371930	-0.044701755
47	0x3d1b739c	0.03795205
48	0x3e1e6d3b	0.15471356
49	0x3e2e5a23	0.17026572
50	0xbd9965c9	-0.07490117
51	0x3d4709fb	0.048593502
52	0x3da716be	0.081586346
53	0xbb387279	-0.0028144403
54	0xbd76e8fc	-0.060280785
55	0x3caf41ec	0.021393739
56	0x3d8091a1	0.062777765
57	0xbd002b95	-0.031291563
58	0xbe0d34b9	-0.13789643
59	0x3daf1f8e	0.085509405
60	0xbd20fb46	-0.039302133
61	0x3e156c0b	0.14591996
62	0xbd6ce22e	-0.05783289
63	0xbcfdcf09	-0.030982511
64	0x3c92642d	0.017870033
65	0xbe1c39a2	-0.1525636
66	0x3dd55ad9	0.104177184
67	0x3e7d5d6c	0.24742669
68	0x3d3d643b	0.046238165
69	0xbdad9f1a	-0.08477612
70	0x3c82b545	0.015955577
71	0x3d6db8f5	0.058037717
72	0x3d51f90f	0.05126291
73	0xbe6b433e	-0.2297487
74	0xbe8cf504	-0.27530682
75	0xba40a47d	-0.00073487294
76	0x3d488fb4	0.04896517
77	0x3dc2d42a	0.09513123
78	0x3a9c2502	0.0011912885
79	0x3dc7cf06	0.097562835
80	0x3d848b54	0.06471887
81	0xbe57939f	-0.21052407
82	0xbdc20f28	-0.09475547
83	0xbcc0f114	-0.023552455
84	0x3c9fb8bd	0.01949727
85	0x3ddbbc13	0.10729232
86	0x3d8f9ba4	0.07012108
87	0x3e791867	0.24325715
88	0x3e599809	0.21249403
89	0xbc89a93f	-0.016804336
90	0x3d26e8d5	0.04074939
91	0xbeb04e7b	-0.34434876
92	0xbc67604c	-0.01412208
93	0xbe361f22	-0.17785314
94	0xbf10090f	-0.5626382
95	0xbe1c3dae	-0.15257904
96	0xbc8e3e16	-0.01736359
97	0xbefc782e	-0.4931044
98	0xbe8312d2	-0.25600296
99	0x3d9f8b12	0.077901974
100	0x3d829f1e	0.063780054
101	0xbe3f11b9	-0.18659104
102	0xbd8a4d9e	-0.067530856
103	0x3e01fe1d	0.12694593
104	0xbe69598c	-0.22788066
105	0x3c8a6396	0.01689319
106	0xbe892413	-0.26785335
107	0x3d1669cb	0.036721986
108	0x3deba543	0.115061305
109	0x3a2bca5e	0.00065532874
110	0xbda46df4	-0.080287844
111	0x3cb3678e	0.021899965
112	0xbc345a33	-0.011007833
113	0xbde19c5b	-0.110161506
114	0x3df03d65	0.1173046
115	0xbdcca2a5	-0.099919595
116	0xbe01e4d0	-0.12684941
117	0xbd6bd59d	-0.057576764
118	0xbbcbf8ad	-0.006224713
119	0x3e1d58bf	0.15365885
120	0xbdf2453e	-0.11829613
121	0xbedb93f0	-0.42886305
122	0x3d33bb3d	0.043879736
123	0xbe0bb2f2	-0.13642481
124	0xbedc10fe	-0.42981714
125	0x3e872798	0.26397395
126	0x3e2a99ff	0.16660307
127	0xbe29e4f3	-0.16591243
128	0xbe8f5c7b	-0.28000244
129	0x3d80479c	0.062636584
130	0xbeec7a47	-0.4618704
131	0xbeb78d48	-0.35849977
132	0xbdc3d67f	-0.09562396
133	0xbedb615d	-0.4284772
134	0xbe52aa5f	-0.20572804
135	0xbc99288c	-0.018696092
136	0xbdcaa74a	-0.09895189
137	0xbc973940	-0.018459916
138	0xbdbb7361	-0.09152866
139	0xbc486b48	-0.012232609
140	0xbe131fc1	-0.14367582
141	0x3de7781c	0.11302206
142	0x3dc6f704	0.09715083
143	0xbe2f79e5	-0.17136343
144	0xbbd4cafd	-0.0064939247
145	0x3d96f46e	0.0737084
146	0xbd4d3972	-0.050103612
147	0xbe1618ac	-0.14657849
148	0xbe6ecd9d	-0.23320623
149	0xbd733702	-0.05937863
150	0xbcc36516	-0.023851912
151	0xbd45276e	-0.048133306
152	0x3c8fee55	0.0175697
153	0x3e367057	0.17816292
154	0x3e129589	0.14314856
155	0x3e0fdddf	0.14049481
156	0x3e7b8997	0.24564205
157	0x3d377749	0.044791494
158	0xbb05dd7b	-0.0020426202
159	0x3e3751bc	0.17902273
160	0x3e7f781c	0.24948162
161	0x3d9af3e8	0.07566053
162	0xbe385a74	-0.18003255
163	0x3d5e69fa	0.054300286
164	0x3e04d523	0.1297193
165	0xbe2d9b37	-0.16953741
166	0xbe06b74c	-0.1315586
167	0x3bcf5e1a	0.0063283565
168	0x3da45cb6	0.08025496
169	0x3b9aea90	0.004727669
170	0xbdabcc0d	-0.08388529
171	0xbdb25f08	-0.08709532
172	0xbdab42a4	-0.0836232
173	0x3d378837	0.04480764
174	0x3d764cc9	0.06013182
175	0xbcb83e7d	-0.022490734
176	0xbd0ffd01	-0.035153393
177	0x3e5c7aff	0.21531294
178	0x3e1b65cf	0.15175556
179	0xbd085679	-0.03328559
180	0xbd260f3b	-0.04054187
181	0xbe6d9353	-0.23200731
182	0xbe8b0655	-0.27153268
183	0xbdc1871a	-0.09449597
184	0xbe95376a	-0.2914384
185	0xbe5afb8c	-0.2138502
186	0xbc0756cf	-0.008260443
187	0xbe23c7d2	-0.15994194
188	0xbe536c13	-0.20646696
189	0xbe65d1f0	-0.22443366
190	0xbe710233	-0.23535995
191	0xbe77c5f6	-0.2419661
192	0x3e2d5059	0.16925181
193	0xbea1f162	-0.31629473
194	0xbdf9a082	-0.121888176
195	0x3eacb958	0.33735156
196	0x3e0e0ea8	0.13872778
197	0x3e549d97	0.20763241
198	0xbd8210da	-0.063508704
199	0xbe1f5f98	-0.1556381
200	0xbdd522ae	-0.10407005
201	0x3d2cfb11	0.042231623
202	0xbe541e90	-0.20714784
203	0xbe59ee3d	-0.21282287
204	0x3dc0b368	0.09409219
205	0x3b3384a6	0.0027392297
206	0xbe08e7e0	-0.13369703
207	0x3d846751	0.064650185
208	0xbdb402b7	-0.0878958
209	0xbe0eeed5	-0.13958295
210	0xbde27ce7	-0.110589795
211	0xbe12a606	-0.14321145
212	0xbde37d9d	-0.11107943
213	0xbd98ff99	-0.074706264
214	0xbdad9c53	-0.08477082
215	0xbd41ee5b	-0.047346454
216	0xbe4d9922	-0.20077947
217	0xbe8e6ce8	-0.27817464
218	0x3d290af7	0.041270223
219	0xbe8bd29c	-0.2730912
220	0xbe3f115a	-0.18658963
221	0x3d20f597	0.039296713
222	0xbe2c6d5c	-0.16838592
223	0xbe509dbc	-0.20372671
224	0xbdac0763	-0.083998464
225	0x3e5f2927	0.21793042
226	0x3d7bc1ea	0.061464228
227	0x3ca4f6d7	0.020137234
228	0x3d2e521d	0.042558778
229	0x3e31b6a0	0.17354822
230	0x3dd72775	0.10505573
231	0x3cddc736	0.02707253
232	0x3ecd7797	0.40130302
233	0x3e9d93f0	0.3077693
234	0xbd15509b	-0.036453824
235	0xbe03feb7	-0.12890135
236	0xbd88c23c	-0.06677672
237	0xbe583283	-0.21113019
238	0xbea69e13	-0.32542476
239	0xbe8ef9cd	-0.27924958
240	0x3a56fac1	0.00082008174
241	0xbc7a9605	-0.0152945565
242	0x3dafff5e	0.08593629
243	0x3d22ce79	0.03974769
244	0xbcfbb4a0	-0.030725777
245	0xbbc353f8	-0.0059609376
246	0x3ba28b2d	0.0049604387
247	0x3d564708	0.052313834
248	0xbd78ce8d	-0.060743857
249	0x3dc9ceec	0.0985392
250	0xbd4fd58c	-0.050740764
251	0xbc74cae4	-0.014940951
252	0x3e071ea8	0.13195288
253	0x3d5e6f48	0.054305345
254	0x3d592a9e	0.05301916
255	0xbdd981c5	-0.10620455

deconv1.conv2d.bias f4 [16]
0	0xbe328a3f	-0.17435549
1	0xbe006ad5	-0.12540753
2	0x3e672341	0.22572042
3	0xbd04d48d	-0.032429267
4	0xbe4789e7	-0.194862
5	0x3eaa93c3	0.33315858
6	0x3e088b0c	0.13334292
7	0x3d738620	0.059454083
8	0xbde98d77	-0.114039354
9	0xbe8fa821	-0.2805796
10	0xbe938ae4	-0.28816903
11	0xbdb69446	-0.08915
12	0xbcf06c16	-0.029348414
13	0xbcd06faf	-0.02544388
14	0xbe218b2a	-0.15775743
15	0xbe8a0c84	-0.26962674

deconv1.conv2d.weight f4 [16, 32, 3, 3]
0	0x3d98caae	0.07460533
1	0x3e2fa65c	0.17153305
2	0x3d0b04bf	0.033940073
3	0xbdd4afc9	-0.10385091
4	0xbcbe9aa7	-0.023267103
5	0x3e2864c6	0.16444692
6	0x3c20b096	0.009807726
7	0x3e2fe7b8	0.17178237
8	0xbd29b2ef	-0.04143041
9	0xbda7a4cd	-0.0818573
10	0x3dc448eb	0.095842205
11	0x3d5be653	0.05368645
12	0x3e0c08ef	0.13675283
13	0xbd690bb6	-0.056895934
14	0x3d168157	0.03674444
15	0xbe2c0767	-0.16799699
16	0xbda23bc2	-0.07921554
17	0xbe880055	-0.26562753
18	0xbd692cdf	-0.056927558
19	0xbcf95f6c	-0.030441009
20	0xbd8634e0	-0.06553054
21	0xbe17dab4	-0.14829522
22	0xbc4acc4f	-0.0123778125
23	0x3d8dd908	0.06926161
24	0xbdcf2640	-0.101147175
25	0xbc03a845	-0.008035724
26	0xbe403a68	-0.1877228
27	0xbe4d8b88	-0.20072758
28	0xbea61ff7	-0.32446262
29	0xbdf3c1f3	-0.11902227
30	0xbdb1d336	-0.086828634
31	0x3c3b684c	0.0114384405
32	0xbda8978d	-0.08232031
33	0x3de513cc	0.111854166
34	0x3e2b2e84	0.16716963
35	0x3d5129ca	0.051065244
36	0x3e1aaa49	0.15104021
37	0xbb8b01dc	-0.004242165
38	0xbda21d20	-0.079157114
39	0x3c1a8a05	0.0094323205
40	0xbe859118	-0.2608726
41	0x3d1bc490	0.038029253
42	0xbca9515a	-0.020668674
43	0x3d297976	0.0413756
44	0xbd232ea9	-0.03983942
45	0x3dd427bd	0.10359142
46	0x3dd0e697	0.102002315
47	0xbe2aff69	-0.16698994
48	0xbd38a35d	-0.04507767
49	0xbea4931b	-0.32143483
50	0x3cf71b01	0.030164244
51	0x3d9c5aeb	0.07634529
52	0x3d865e0b	0.06560906
53	0x3e08683a	0.1332101
54	0xbda67be5	-0.081291
55	0x3d05fd8a	0.032712497
56	0xbe01746c	-0.12642068
57	0xbd3f1fee	-0.04666131
58	0x3e17b21d	0.14814039
59	0xbc94fff1	-0.018188449
60	0x3d2fea29	0.042947922
61	0xbdc4b0d8	-0.09604043
62	0x3cef73e0	0.029230058
63	0x3d88fd6e	0.06688963
64	0xbd642cd4	-0.055706814
65	0x3d228de6	0.039686106
66	0xbe295cd6	-0.1653932
67	0x3cf949dd	0.030430729
68	0xbe25e325	-0.1619993
69	0xbc2cfb5a	-0.010557974
70	0xbcfde856	-0.030994575
71	0xbcbc9f33	-0.02302513
72	0x3d6fc31c	0.05853568
73	0x3d151572	0.036397405
74	0xbd0ecf0c	-0.034865424
75	0xbb41c96d	-0.0029569522
76	0xbe3cfe61	-0.18456413
77	0xbe1fe7b3	-0.1561573
78	0x3d88b11a	0.066744044
79	0x3dc9f205	0.09860615
80	0x3b951e7b	0.0045507527
81	0xbb48d479	-0.0030644222
82	0xbdccfa78	-0.100087106
83	0xbddc6f99	-0.10763473
84	0xbd075be0	-0.033046603
85	0xbdf4292d	-0.11921916
86	0x3e59295f	0.21207188
87	0xbc81f509	-0.015863912
88	0x3d018320	0.03161919
89	0xbdbfa4f0	-0.09357631
90	0xbdc1af17	-0.09457224
91	0xbe044668	-0.12917483
92	0x3d571fb9	0.052520487
93	0xbd929d66	-0.071589276
94	0x3c2d89dc	0.01059195
95	0x3d531e75	0.051542718
96	0x3d24a942	0.04020048
97	0x3e2935e7	0.16524468
98	0xbd83f97e	-0.06444071
99	0xbe21d174	-0.15802556
100	0xbd83ddaa	-0.064387634
101	0x3e1a2b78	0.15055645
102	0x3d8774c8	0.06614071
103	0x3e50ff15	0.20409806
104	0x3d221941	0.039574865
105	0xbb66fb11	-0.0035244862
106	0xbdeee014	-0.11663833
107	0x3d4701a7	0.04858556
108	0x3a955c41	0.0011395292
109	0xbe933910	-0.28754473
110	0x3be59382	0.0070061097
111	0xbd6c5d70	-0.057706296
112	0x3dc70ce1	0.09719253
113	0x3dc0c716	0.09412973
114	0x3de12061	0.10992504
115	0xbcf5f4e2	-0.030023996
116	0xbd1cbc2d	-0.038265396
117	0xbe520c87	-0.20512591
118	0x3dc08e54	0.09402147
119	0x3d841891	0.06449998
120	0x3d0efcaf	0.034908947
121	0x3e9c8e17	0.30577156
122	0x3ba2b21b	0.0049650795
123	0x3dd8fd63	0.10595205
124	0xbce0a41c	-0.027422003
125	0xbdd4d139	-0.103914686
126	0x3d75980a	0.05995945
127	0xbddf9c60	-0.10918498
128	0x3d46ca11	0.04853255
129	0x3d642c8f	0.055706557
130	0x3e4eb251	0.2018521
131	0x3d442920	0.047890782
132	0xbd52e4b9	-0.05148766
133	0xbd4704e7	-0.04858866
134	0xbdde1987	-0.10844713
135	0x3e2b5568	0.16731799
136	0x3d9db8a8	0.07701236
137	0xbbd617b7	-0.0065335887
138	0xbc988b9c	-0.018621258
139	0xbe91b9c7	-0.2846205
140	0x3c9f91f5	0.019478777
141	0x3dd8d5dd	0.10587666
142	0x3d030158	0.031983703
143	0xbcbd4413	-0.02310375
144	0x3e795f67	0.243528
145	0x3e1147ef	0.14187597
146	0x3c363a7e	0.011122344
147	0xbd3fac3b	-0.04679511
148	0xbd881546	-0.066446826
149	0xbe9de6c5	-0.30840126
150	0x3d8f903f	0.07009935
151	0xbeabc251	-0.3354669
152	0xbd4822b1	-0.04886121
153	0xbe410227	-0.18848477
154	0xbe977d12	-0.2958761
155	0xbe1f94f4	-0.15584165
156	0xbd8898dc	-0.066697806
157	0x3d00dacb	0.031458657
158	0x3e56018c	0.20899028
159	0x3dbd67a7	0.09248286
160	0x3e5d7a0f	0.21628593
161	0xbb8e09e6	-0.004334676
162	0xbe364e0f	-0.17803214
163	0xbcdd7297	-0.02703218
164	0xbd3f3f48	-0.04669121
165	0x3d3b6784	0.045753017
166	0x3d901b6a	0.07036479
167	0xbd8c52ce	-0.06851731
168	0xbd0004ea	-0.031254686
169	0xbd2e6a34	-0.042581752
170	0xbd5e54cd	-0.05428009
171	0xbd8a0b07	-0.067403845
172	0xbd956319	-0.07294292
173	0x3e561211	0.2090533
174	0xbde1d7cc	-0.11027488
175	0x3e2f6771	0.17129304
176	0xbe821fe0	-0.25414944
177	0x3ca3680d	0.019947076
178	0xbd351b87	-0.044215705
179	0x3b4d188d	0.003129515
180	0x3e1d2335	0.15345462
181	0x3defa696	0.117016956
182	0x3db26a04	0.08711627
183	0x3e262899	0.16226424
184	0x3ea2f2b2	0.31825787
185	0x3d48e337	0.049044814
186	0xba7e8115	-0.0009708566
187	0xbd1fd732	-0.039023586
188	0xbdda2adf	-0.10652708
189	0x3e04d41d	0.1297154
190	0xbdca8325	-0.09888295
191	0xbe3d6d91	-0.18498828
192	0x3dbb553f	0.09147119
193	0x3e1ae1d6	0.15125212
194	0x3de2f920	0.11082673
195	0x3d24c6c8	0.040228635
196	0xbd64f6a9	-0.055899296
197	0x3d533aab	0.051569622
198	0x3d80c78d	0.06288061
199	0xbbff25aa	-0.0077864723
200	0x3e2c46d1	0.1682389
201	0x3c5563ce	0.013024284
202	0xbe7c1120	-0.24615908
203	0xbe57fc3d	-0.21092315
204	0xbdc79a95	-0.09746281
205	0xbe0da451	-0.13832213
206	0xbd1a8005	-0.037719745
207	0xbd46ce81	-0.04853678
208	0x3d468312	0.048464842
209	0xbe0399c3	-0.12851624
210	0x3e249f68	0.16076434
211	0x3dca2aca	0.098714426
212	0x3da5b7a9	0.08091671
213	0x3c909e40	0.017653584
214	0xbd1032e0	-0.03520477
215	0x3ddf8ee1	0.10915924
216	0xbd9de303	-0.07709315
217	0xbe0611a5	-0.13092668
218	0x3e067d92	0.13133839
219	0xbd8e2450	-0.0694052
220	0x3d97e29c	0.07416269
221	0xbe53d59e	-0.20686957
222	0xbd2a25d4	-0.041539982
223	0xbe85f682	-0.26164633
224	0xbb99d8a8	-0.004695017
225	0xbd8afb71	-0.0678624
226	0x3e89a952	0.26886994
227	0xbd0a588d	-0.033775855
228	0x3e137e41	0.14403631
229	0xbdcfe306	-0.10150723
230	0xbde6b6e0	-0.112653494
231	0xbc98bc84	-0.018644579
232	0xbe0a5e75	-0.13512595
233	0x3d920aa5	0.071309365
234	0x3d8b387c	0.06797883
235	0xbcc3d0f8	-0.023903355
236	0xbd87bd8f	-0.06627952
237	0x3e29adf3	0.16570263
238	0x3de1f5b6	0.11033194
239	0x3e19df08	0.15026486
240	0xbde161d5	-0.11004988
241	0xbe2f97f6	-0.17147812
242	0xbe0c045a	-0.13673535
243	0xbe4b6cc3	-0.19865708
244	0xbe4a18dd	-0.19736047
245	0xbddcdbd8	-0.10784119
246	0xbc7a3c2a	-0.015273133
247	0xbd92f963	-0.07176473
248	0x3e5f79fe	0.2182388
249	0xbdc153f6	-0.094398424
250	0x3e07fd97	0.1328033
251	0x3cf7fd06	0.030272018
252	0xbe291bc5	-0.165145
253	0xbe1c776e	-0.15279934
254	0xbcaeda99	-0.02134447
255	0xbd987356	-0.074438736

deconv2.conv2d.bias f4 [8]
0	0x3e047313	0.12934522
1	0x3e509e75	0.20372947
2	0xbd718ff1	-0.058975164
3	0x3da43a42	0.08018924
4	0x3c39247e	0.011300204
5	0x3d80082d	0.062515594
6	0xbe1f15eb	-0.15535705
7	0x3da8b94b	0.08238467

deconv2.conv2d.weight f4 [8, 16, 3, 3]
0	0x3d559c9c	0.052151307
1	0xbc373651	-0.011182384
2	0x3d2da7de	0.04239642
3	0x3cc77fac	0.02435287
4	0xbd792782	-0.060828693
5	0x3cb066cf	0.021533398
6	0xbd0ebd30	-0.034848392
7	0xbc9df2fb	-0.019280901
8	0xbe0f6d1b	-0.14006464
9	0xbd9eeb5d	-0.07759736
10	0x3d8a0eef	0.067411296
11	0x3c1af653	0.009458142
12	0x3bb23a35	0.0054390677
13	0x3da4bf8f	0.080443494
14	0x3e11f0a6	0.14251956
15	0xbdf56757	-0.11982601
16	0x3e55915e	0.20856234
17	0x3d48bc97	0.04900798
18	0x3ddc9f54	0.10772577
19	0x3d7046c0	0.058661222
20	0xbbf4c6ca	-0.0074699866
21	0xbde7b0af	-0.113129966
22	0xbda3b50b	-0.079935156
23	0x3e3ab6b8	0.18233764
24	0x3e0aedd4	0.13567287
25	0xbdeb11a2	-0.114779726
26	0xbb2c32a5	-0.0026275304
27	0x3d03e45b	0.0322002
28	0xba9a9432	-0.0011793433
29	0x3da9f869	0.082993336
30	0xbde94967	-0.113909535
31	0x3c9629c2	0.018330459
32	0x3d128a37	0.035776343
33	0xbaef42c4	-0.0018254151
34	0xbd514586	-0.051091693
35	0xbcb25369	-0.021768289
36	0x3d34bbed	0.044124532
37	0xbcafe9cd	-0.02147379
38	0x3da9c7f4	0.08290091
39	0xbe5707c5	-0.20999058
40	0x3dd36cec	0.103235096
41	0x3d8de76a	0.06928904
42	0xbe271eac	-0.16320294
43	0xbd8ac0e3	-0.067750715
44	0x3e0f3919	0.13986625
45	0xbd7f13be	-0.062274687
46	0x3d37081b	0.044685464
47	0x3db5e91a	0.08882351
48	0xbe9a5d69	-0.3014939
49	0x3e99d79e	0.30047315
50	0xbda5a697	-0.08088415
51	0xbe8b6510	-0.27225542
52	0x3e78bdb2	0.24291113
53	0xbbc0d844	-0.005885156
54	0xbd2f6289	-0.04281858
55	0x3cd2086f	0.025638787
56	0xbd4f2e4c	-0.05058126
57	0x3cdd9687	0.027049316
58	0xbe0a1615	-0.13484986
59	0x3c1a031e	0.009400157
60	0x3d10bdb9	0.035337184
61	0xbd12b13e	-0.035813563
62	0x3d6daa88	0.05802396
63	0xbd9e7acf	-0.07738268
64	0x3dd29aeb	0.102834545
65	0x3dc2a558	0.09504193
66	0x3dcd2fea	0.100189045
67	0xbe117780	-0.14205742
68	0xbd03320c	-0.03203015
69	0x3cd4fc85	0.025999317
70	0x3e094f8a	0.13409248
71	0x3b54074b	0.003235298
72	0x3e142753	0.14468126
73	0x3e34e71c	0.17666286
74	0xbbba3d51	-0.005683579
75	0x3e41787d	0.18893619
76	0x3e239803	0.15975957
77	0xbe65a46e	-0.22426006
78	0x3e0270f7	0.12738405
79	0x3e5aa831	0.21353222
80	0xbde97cae	-0.11400734
81	0x3ceafa00	0.028683662
82	0x3d60df4b	0.05490045
83	0xbe3d3923	-0.18478827
84	0x3d9ddd9f	0.077082865
85	0xbcbc88d3	-0.023014462
86	0x3e8217f8	0.25408912
87	0xbc96358d	-0.018336082
88	0x3e2c0584	0.16798979
89	0xbc80d548	-0.0157267
90	0x3bc5b06c	0.006032994
91	0xbe423629	-0.18965973
92	0xbc41c5f0	-0.011826977
93	0x3e25557e	0.16145894
94	0xbea5f91d	-0.3241662
95	0x3d6348b7	0.05548927
96	0x3e54d344	0.20783716
97	0xbebccf9c	-0.36877143
98	0x3c3c057e	0.011475919
99	0x3b977df2	0.004623168
100	0xbd9710c7	-0.07376247
101	0x3d7b73fd	0.061389912
102	0xbcf9469b	-0.030429175
103	0x3c7fa6cd	0.015603733
104	0xbce757d9	-0.028240131
105	0x3b36fd52	0.0027921987
106	0xbd412d1b	-0.047162157
107	0x3d116eb1	0.035505954
108	0xbd8cb211	-0.06869901
109	0xbc21d51f	-0.009877472
110	0xbd24ef97	-0.040267553
111	0x3d32a341	0.043612722
112	0x3d7f2875	0.062294442
113	0xbd6aea14	-0.05735214
114	0xb93279af	-0.00017020734
115	0xbd2dee97	-0.042463865
116	0xbd5b1ec5	-0.05349614
117	0xbe3a83d2	-0.18214348
118	0x3cbd51fe	0.023110386
119	0xbdb873fa	-0.09006496
120	0x3eabf863	0.33587942
121	0x3df3fa24	0.11912945
122	0xbe3ab935	-0.18234713
123	0xbe6f4c99	-0.23369063
124	0x3d8ee35c	0.06976959
125	0x3e1e2896	0.1544517
126	0xbcb58133	-0.022156334
127	0xbda9b7b4	-0.08286992
128	0x3d4b0bc4	0.049571767
129	0x3d5f459b	0.05450974
130	0xbdfffc37	-0.12499278
131	0xbe355836	-0.17709431
132	0x3c366026	0.011131322
133	0x3e9ee2ed	0.31032506
134	0x3c56fdc9	0.0131220305
135	0xbd62b833	-0.055351447
136	0xbd8628d4	-0.06550756
137	0xbd457cc1	-0.048214678
138	0xbdabc38b	-0.08386906
139	0x3e223a6f	0.15842603
140	0xbda58816	-0.08082597
141	0x3e4a2688	0.19741261
142	0xbe9d525b	-0.30726895
143	0x3e11602b	0.14196841
144	0x3d20a09b	0.039215665
145	0xbd4daff9	-0.05021665
146	0x3d9c428f	0.076298825
147	0xbd19c87b	-0.03754471
148	0x3db0e963	0.08638265
149	0x3d9fa2f4	0.07794753
150	0x3da5d083	0.08096411
151	0x3e27ade4	0.16374928
152	0x3d811744	0.06303266
153	0x3bce9a3f	0.0063050087
154	0xbd56507b	-0.052322846
155	0x3dcef950	0.10106146
156	0x3d810e6a	0.063015774
157	0xbdaa1081	-0.08303929
158	0x3c467682	0.012113215
159	0xbda26f88	-0.07931429
160	0x3e15adf6	0.14617142
161	0x3d92d0fd	0.071687676
162	0x3d9c3608	0.07627493
163	0xbe82d61a	-0.25553972
164	0x3e121383	0.14265256
165	0xbc3692df	-0.011143415
166	0x3e05c846	0.1306468
167	0xbea88ac6	-0.32918376
168	0x3d758819	0.059944246
169	0xbd9b99f5	-0.07597724
170	0x3e1b5fd9	0.15173282
171	0xbc0a0c8d	-0.008425844
172	0xbc84cb85	-0.016210327
173	0x3cf39f72	0.029739115
174	0x3daa9063	0.08328321
175	0x3d83e088	0.0643931
176	0xbc626610	-0.013818279
177	0x3db671f0	0.089084506
178	0x3e114b28	0.14188826
179	0x3c56847e	0.013093112
180	0x3d1e30fc	0.038620934
181	0x3bb9fa10	0.0056755617
182	0x3cc49ebf	0.024001477
183	0xbc533bf9	-0.012892717
184	0xbd023a07	-0.03179362
185	0x3e731940	0.23740101
186	0x3ddcab37	0.10774844
187	0x3da5ca2d	0.080952026
188	0xbd06ae22	-0.03288091
189	0x3e099250	0.1343472
190	0xbdf35990	-0.11882317
191	0xbcbd78a1	-0.02312881
192	0xbc9bf953	-0.019039785
193	0x3c82b7c2	0.015956763
194	0x3d064fc0	0.0327909
195	0x3da6b220	0.081394434
196	0x3d1dd7d2	0.0385359
197	0xbd6d5cbf	-0.057949778
198	0x3d309c2e	0.043117695
199	0xbe19fe5a	-0.15038434
200	0xbd9959e4	-0.074878484
201	0xbe176ae9	-0.14786877
202	0xbe072975	-0.13199408
203	0x3da8fe88	0.08251673
204	0xbc01ed98	-0.007930182
205	0x3de71268	0.112828076
206	0x3d95d683	0.073163055
207	0x3d373f0b	0.044737857
208	0xbdf62a1b	-0.1201975
209	0x3aa8453f	0.001283802
210	0x3b208097	0.0024490708
211	0x3e2b5ae4	0.16733891
212	0x3d0c58e2	0.034264453
213	0xbd8194c6	-0.063272044
214	0xbda7f8a1	-0.08201719
215	0x3db5f4e0	0.08884597
216	0xbe26bcdb	-0.1628298
217	0x3d0b64f5	0.034031827
218	0x3c9f04a0	0.019411385
219	0xbcfa07b8	-0.030521259
220	0xbe0fd733	-0.14046936
221	0xbcaafa6f	-0.02087137
222	0xbd0da5a9	-0.034581814
223	0xbdf86d2f	-0.121302
224	0x3cb66da3	0.022269076
225	0x3d0ed64f	0.03487235
226	0xbdea0fdc	-0.11428806
227	0xbc1a7ba3	-0.009428891
228	0x3ced0362	0.028932277
229	0xbcdfaf28	-0.0273052
230	0x3de6fd44	0.11278775
231	0xbc7af96f	-0.015318259
232	0xbb123c4f	-0.0022313779
233	0xbcca8c1c	-0.024725012
234	0x3c7d29d9	0.015451872
235	0xbcaa14af	-0.020761816
236	0x3da3c42e	0.07996403
237	0xbe0c9fd5	-0.13732846
238	0x3e120800	0.14260864
239	0x3d2db748	0.04241112
240	0xbe5633f5	-0.20918258
241	0x3e50260e	0.20327017
242	0xbdb7fb44	-0.08983472
243	0xbc7bf08d	-0.015377176
244	0xbc41dd03	-0.011832478
245	0xbce37e34	-0.02777014
246	0xbd141bf4	-0.03615947
247	0xba8a0af5	-0.001053183
248	0xbd34448a	-0.044010676
249	0xbcfab835	-0.030605415
250	0xbd6ef480	-0.058338642
251	0x3d273f8a	0.04083208
252	0x3ca4246a	0.020036895
253	0xbd8b5191	-0.06802667
254	0xb8e10c51	-0.0001073113
255	0x3d01e55b	0.03171287

deconv3.conv2d.bias f4 [3]
0	0x3f174e9c	0.59104323
1	0x3f01957c	0.5061872
2	0xbc22c7f7	-0.009935371

deconv3.conv2d.weight f4 [3, 8, 9, 9]
0	0x3e794405	0.24342354
1	0x3f0582ac	0.52152514
2	0x3a814062	0.0009861107
3	0xbe286f68	-0.16448748
4	0x3e18c606	0.1491929
5	0xbd99c58d	-0.07508383
6	0xbe6ff22e	-0.23432228
7	0x3d2f9020	0.042862058
8	0x3d818777	0.06324666
9	0x3cccf450	0.025018841
10	0xbecd1da9	-0.4006169
11	0x3c817a2a	0.015805323
12	0x3e0488e1	0.1294284
13	0xbe1b198b	-0.15146463
14	0xbecb7cf6	-0.39743775
15	0xbe1ef39f	-0.15522622
16	0xbd63f778	-0.055655926
17	0xbdd4cbcf	-0.10390436
18	0xbec9e706	-0.3943407
19	0xbf34582a	-0.7044703
20	0x3ea8df2d	0.3298277
21	0x3ed5daa0	0.4176836
22	0xbef7e3d3	-0.48416004
23	0xbe005640	-0.12532902
24	0xbebb7bda	-0.3661793
25	0xbe879cb5	-0.26486745
26	0x3b9e5014	0.0048313234
27	0x3eafa76e	0.34307426
28	0x3f07c579	0.53035694
29	0xbe3ec5fc	-0.18630213
30	0x3f6764b1	0.9038802
31	0xbfa32e62	-1.274853
32	0xbd99fd10	-0.07518971
33	0x3f01024c	0.5039413
34	0xbe841020	-0.25793552
35	0x3e42f147	0.19037353
36	0x3f022e4e	0.50851905
37	0x3eb90c97	0.36142418
38	0x3f6d446e	0.9268254
39	0x3fc27666	1.5192382
40	0xbf1510b9	-0.5822864
41	0xbf7f2001	-0.9965821
42	0xbf854c97	-1.0413998
43	0x3ea3ac45	0.3196737
44	0x3e896abc	0.26839244
45	0x3e138abe	0.14408395
46	0x3e08c7a9	0.13357414
47	0x3f234a39	0.6378513
48	0x3f917917	1.1365079
49	0x3f3f95c5	0.74837905
50	0x3edf8e10	0.43663073
51	0x3e931a1b	0.28730854
52	0x3efc2da4	0.4925357
53	0xbe65e3fe	-0.22450253
54	0x3dc23fc4	0.094848186
55	0x3e960106	0.29297656
56	0x3f14dca0	0.5814915
57	0xbd1e084c	-0.03858213
58	0x3ea41ec6	0.32054728
59	0x3f8b6854	1.0891213
60	0x3f3814e1	0.7190686
61	0xbf13a140	-0.5766792
62	0xbee7927f	-0.45228955
63	0xbd81333b	-0.063085996
64	0xbca0e5c5	-0.019640813
65	0x3e292130	0.16516566
66	0xbe94ef5c	-0.29088867
67	0x3eb128c6	0.3460142
68	0xbed80fbf	-0.42199513
69	0xbf87ea49	-1.0618373
70	0xbe02b72b	-0.12765186
71	0x3ecb6357	0.39724228
72	0x3e8750cb	0.26428828
73	0xbd3e8d23	-0.046521317
74	0x3cb719d4	0.022351183
75	0x3ef43f38	0.47704482
76	0xbed9426c	-0.42433488
77	0xbf1247f7	-0.5714106
78	0x3e0a6d66	0.13518295
79	0x3ea079b0	0.3134284
80	0xbda3730c	-0.07980928
81	0x3d8b5c78	0.068047464
82	0x3e8b16c9	0.2716582
83	0xbcd1a167	-0.025589658
84	0x3d288a79	0.041147683
85	0xbe16a1a0	-0.14710093
86	0x3df2343f	0.118263714
87	0x3e9b3351	0.3031259
88	0x3edde684	0.43339932
89	0xbeb26f8f	-0.34850737
90	0x3e36e6c0	0.17861462
91	0x3d483b33	0.04888458
92	0xbee6731b	-0.45009694
93	0xbe90c69e	-0.28276533
94	0x3eb0ba80	0.34517288
95	0xbdcc1121	-0.099642046
96	0xbe21d1e3	-0.15802722
97	0x3e9cfdd6	0.3066241
98	0x3e15e9e2	0.1464
99	0xbe983251	-0.29725888
100	0xbeaa13fb	-0.3321837
101	0xbf35f5ac	-0.7107799
102	0xbea17a02	-0.31538397
103	0xbf6d09e9	-0.92593247
104	0xbee290dc	-0.44251144
105	0xbf0c111b	-0.547136
106	0xbe9fbb4c	-0.31197584
107	0xbe83050d	-0.2558979
108	0x3eb3fc51	0.3515344
109	0xbf03e2bc	-0.51517844
110	0xbe4e1e22	-0.20128682
111	0x3f9bd241	1.2173539
112	0x3ec470cd	0.3836731
113	0xbe6b8e34	-0.23003465
114	0x3e6958c8	0.22787774
115	0x3e47de75	0.19518454
116	0xbc4e5702	-0.0125939865
117	0x3d72f920	0.059319615
118	0x3db19676	0.08671276
119	0xbfa50b01	-1.2893983
120	0xbf7016da	-0.9378487
121	0x3fccaeef	1.5990885
122	0x3d35a06e	0.04434245
123	0xbeaf9c6b	-0.34299025
124	0x3eb13e8e	0.34618038
125	0x3e384e1e	0.1799855
126	0x3f0c6723	0.54844874
127	0xbd875209	-0.06607444
128	0x3ed02aab	0.40657553
129	0xbfaff4ef	-1.3746623
130	0xbf9a100a	-1.2036145
131	0x3f2a7801	0.6658936
132	0xbe69d87b	-0.22836487
133	0x3d815c90	0.06316483
134	0x3c311b97	0.010809801
135	0xbead1a31	-0.33809045
136	0x3f0bdfc3	0.5463831
137	0x3f06ab45	0.52605087
138	0x3ee993ee	0.45620674
139	0xbf097d5e	-0.5370692
140	0xbf12c048	-0.5732465
141	0x3f56d746	0.8392223
142	0xbd1f99a0	-0.038964868
143	0xbf1a40b1	-0.6025496
144	0xbdf7876e	-0.12086378
145	0x3e68eb1d	0.22745939
146	0x3ee8f00f	0.4549565
147	0x3dc41754	0.09574762
148	0xbd7981a6	-0.060914658
149	0xbe1d8d37	-0.153859
150	0xbdc02d12	-0.093835965
151	0x3edf6d9a	0.43638307
152	0xbf14f278	-0.5818248
153	0xbe0c60c7	-0.13708793
154	0xbce8f94a	-0.028439183
155	0xbf05dec1	-0.5229302
156	0x3e96dbed	0.29464665
157	0x3e732b82	0.23747066
158	0xbf292ba7	-0.66082233
159	0xbeda8cc0	-0.4268551
160	0x3dd0f319	0.10202617
161	0x3dc3dedc	0.095639914
162	0x3d3ddf46	0.04635551
163	0xbdc196c8	-0.09452587
164	0xbe76d45d	-0.24104448
165	0x3eb8327f	0.35976025
166	0x3e771356	0.2412847
167	0xbe0cd425	-0.13752802
168	0x3d33f81b	0.043937784
169	0x3e7cc5c4	0.24684817
170	0x3e0df76c	0.13863915
171	0xbd3fb626	-0.04680457
172	0x37b9f0b5	2.2165807e-05
173	0x3e765265	0.24054869
174	0xbe24f940	-0.16110706
175	0x3d82f8f1	0.06395138
176	0x3e116896	0.14200053
177	0x3d7ed602	0.062215813
178	0xbcc1c8f6	-0.023655396
179	0xbdd08e4b	-0.1018339
180	0x3e4f7b8c	0.20261973
181	0x3f162179	0.58644825
182	0x3dc7a331	0.09747923
183	0xbeaf9912	-0.3429647
184	0x3e0c47a8	0.1369921
185	0x3e3bee3f	0.18352602
186	0x3e75db83	0.24009518
187	0x3e3a6249	0.18201555
188	0x3dbfc042	0.09362842
189	0x3da45729	0.08024437
190	0x3e526764	0.20547253
191	0x3dced3ea	0.10099013
192	0xbe26a6eb	-0.16274612
193	0x3d03faae	0.03222149
194	0x3dbde067	0.09271317
195	0xbc5e28d1	-0.013559536
196	0x3e4d6d56	0.2006124
197	0x3da95add	0.08269284
198	0xbcdc4199	-0.026886748
199	0x3e1a128e	0.1504614
200	0x3f9c4dff	1.2211303
201	0x3fb3fd9c	1.406177
202	0x3fb87556	1.4410808
203	0x3ef15812	0.47137505
204	0x3e3da866	0.1852127
205	0x3eed3fe9	0.46337822
206	0xbe732682	-0.23745158
207	0x3e450769	0.19241108
208	0x3e27cf56	0.16387686
209	0x3f41c9b0	0.75698376
210	0x3fa711b9	1.3052284
211	0x3f90e0b3	1.1318573
212	0x3f9e39bd	1.236137
213	0x3f1a0809	0.6016851
214	0xbf0db05e	-0.5534724
215	0xbde922c8	-0.11383587
216	0x3e485cfc	0.1956672
217	0x3e31c61c	0.17360729
218	0x3ebf0853	0.37311038
219	0x3f812c19	1.0091583
220	0x3f9b06bf	1.2111434
221	0x3f200eed	0.62522775
222	0xbea45c44	-0.32101643
223	0xbea55737	-0.32293102
224	0x3f07f1d3	0.5310337
225	0x3e65120f	0.2237017
226	0xbdc5ee45	-0.09664587
227	0xbea0c2af	-0.31398532
228	0xbeaaea3f	-0.3338184
229	0xbf3120f0	-0.69190884
230	0xbf94a8f4	-1.161406
231	0xbe5d4f63	-0.21612315
232	0x3e3822ef	0.17982076
233	0x3c2c2c81	0.010508657
234	0x3e105731	0.14095761
235	0xbd3b8617	-0.045782175
236	0xbc1b88e6	-0.009493088
237	0xbcb33836	-0.02187739
238	0xbed180be	-0.40918535
239	0xbdaba1c6	-0.08380465
240	0x3ea7198d	0.3263668
241	0xbd6dd11d	-0.058060754
242	0xbe42c786	-0.19021425
243	0x3f16310d	0.58668596
244	0x3cdf1c70	0.02723524
245	0x3e6a7d45	0.22899349
246	0xbea67d1b	-0.32517323
247	0x3f0731e4	0.528105
248	0x3ed7772c	0.42083108
249	0xbc79767f	-0.015226006
250	0xbdb18164	-0.086672574
251	0x3ef251f7	0.4732816
252	0x3e9d125c	0.3067807
253	0xbcd52bfc	-0.02602195
254	0xbe1767d3	-0.147857
255	0xbe188a52	-0.14896515

in1.bias f4 [8]
0	0x401b12a9	2.423014
1	0x4001b828	2.026865
2	0x3e53a10b	0.20666902
3	0x3feb0f92	1.8364127
4	0x3e5645e5	0.209251
5	0xbe916265	-0.28395382
6	0x3f649600	0.8929138
7	0x3fdb38ce	1.712671

in1.weight f4 [8]
0	0x3f72d8d5	0.9486211
1	0x3f4776ce	0.77915657
2	0x3e9b2bb2	0.30306774
3	0x3f32c2d6	0.69828546
4	0x3f35b6d6	0.7098211
5	0x3e837b74	0.25680125
6	0xbf004415	-0.50103885
7	0x3f4b2e33	0.7936737

in2.bias f4 [16]
0	0xbd1d308e	-0.038376383
1	0xbadcb1a7	-0.0016837612
2	0xbc1d8c3d	-0.009615955
3	0xbba5cf9b	-0.005060149
4	0x3ed0974f	0.4074044
5	0x3be0a1ea	0.006855239
6	0x3d5e9e9c	0.05435048
7	0xbc642311	-0.013924376
8	0x3beec466	0.007286596
9	0x3ce010e1	0.027351798
10	0xbdb6b3d1	-0.08921016
11	0x3e55bc56	0.20872626
12	0x3e73adcb	0.23796766
13	0x3d23a084	0.039948
14	0xbe1ce816	-0.15322909
15	0x3eab2ccd	0.33432618

in2.weight f4 [16]
0	0x3e8a2b7b	0.26986298
1	0x3e53c97e	0.20682332
2	0x3e3b4f19	0.18291892
3	0x3e6be5d0	0.23036885
4	0x3e079518	0.13240469
5	0x3dbef9b6	0.09324972
6	0x3e10425d	0.14087816
7	0x3e328489	0.1743337
8	0x3df856c5	0.12125925
9	0x3dc59eb6	0.09649412
10	0x3e3a29a6	0.1817995
11	0x3e86fe7f	0.2636604
12	0x3d9a1dc8	0.075252116
13	0x3dda89e6	0.10670833
14	0x3e7b2b14	0.24528152
15	0x3d9c8478	0.07642454

in3.bias f4 [32]
0	0xbe30b571	-0.17256714
1	0x3d4087f7	0.047004666
2	0xbd06a003	-0.032867443
3	0x3e293607	0.16524516
4	0xbd198df1	-0.03748888
5	0x3b13af39	0.002253486
6	0x3dbf1ea3	0.09332015
7	0xbdd925ed	-0.10602937
8	0xbcf86428	-0.030321196
9	0xbd84a7dd	-0.0647733
10	0x3e1ab8ae	0.15109512
11	0x3e1b8cff	0.15190504
12	0xbc53729d	-0.012905744
13	0xbcadd2c8	-0.021218672
14	0xbdc1b5e3	-0.0945852
15	0x3d57ebb7	0.05271503
16	0x3e19d960	0.15024328
17	0xbcd60667	-0.0261261
18	0x3d174cee	0.0369386
19	0xbd912576	-0.07087223
20	0xbd3e4e59	-0.046461437
21	0xbcb8d902	-0.022564415
22	0x3d9fac20	0.07796502
23	0xbdb94e1f	-0.090481035
24	0xbe1fb56c	-0.1559655
25	0x3db92116	0.09039514
26	0x3d3ee571	0.04660553
27	0xbc9fe6f9	-0.019519316
28	0xbe27e512	-0.16395977
29	0xba1f6771	-0.00060807826
30	0xbd27f746	-0.041007303
31	0x3d5325db	0.051549774

in3.weight f4 [32]
0	0x3ea0e512	0.31424767
1	0x3e051d13	0.12999372
2	0x3e885d21	0.26633552
3	0x3df03eaa	0.11730702
4	0x3eae214c	0.34009778
5	0x3e6121e4	0.21985584
6	0x3e22f8a8	0.15915167
7	0x3eb6af9d	0.35680857
8	0x3e42bf73	0.19018345
9	0x3e74dcf4	0.23912412
10	0x3e04db6f	0.12974332
11	0x3e07f4d0	0.13276982
12	0x3e4f7389	0.20258917
13	0x3e86c5e7	0.26322863
14	0x3ebdca01	0.3706818
15	0x3e0d522e	0.1380088
16	0x3df51281	0.1196642
17	0x3e4568d3	0.19278269
18	0x3e6d0ac9	0.23148645
19	0x3e5ce4d8	0.21571672
20	0x3e753e69	0.23949589
21	0x3e4f0e82	0.20220378
22	0x3e485bd6	0.19566283
23	0x3e9b99ba	0.30390722
24	0x3e9e33c0	0.30898857
25	0x3e3e9ae5	0.18613775
26	0x3e3d31f1	0.18476082
27	0x3e76c122	0.24097112
28	0x3ec5c0a9	0.3862355
29	0x3e26b266	0.16278991
30	0x3e67d1f0	0.22638679
31	0x3e0e44ab	0.13893382

in4.bias f4 [16]
0	0xbe70488b	-0.23465173
1	0xbaa9fd94	-0.0012969249
2	0xbfa14c99	-1.2601501
3	0x401d6366	2.4591918
4	0x401bb8a4	2.4331446
5	0xbf79cbfa	-0.9757687
6	0xbec24147	-0.37940428
7	0xbf5468f8	-0.8297267
8	0xbf3b1351	-0.7307635
9	0xbf4ddac6	-0.80411947
10	0xbf36b26b	-0.71365994
11	0x3f3668b9	0.71253544
12	0xbf6a4b53	-0.91521186
13	0xbf8380d7	-1.0273694
14	0xbf97be21	-1.1854898
15	0xbf8e3835	-1.1110903

in4.weight f4 [16]
0	0x3f76d5cb	0.9641997
1	0x3f58bda4	0.8466437
2	0x3fbc5495	1.4713312
3	0x3f2bf793	0.67174643
4	0x3f00db52	0.50334656
5	0x3fa04a2d	1.2522637
6	0x3fc5ba67	1.544751
7	0x3fbf8ec8	1.4965448
8	0x3f9d73e1	1.2300988
9	0x3fac4de5	1.3461272
10	0x3fad240e	1.3526628
11	0x3f84376e	1.0329416
12	0x3f757eb1	0.9589644
13	0x3fa42ce9	1.2826205
14	0x3fb251db	1.393123
15	0x3fa65eca	1.2997677

in5.bias f4 [8]
0	0x3ed9f271	0.4256778
1	0x400aefef	2.1708944
2	0x4009f8e3	2.1558158
3	0x400dd214	2.2159472
4	0x3d77e398	0.060519785
5	0xbea4669f	-0.32109544
6	0x3f972534	1.1808228
7	0x4010ced4	2.2626238

in5.weight f4 [8]
0	0x40234f01	2.551697
1	0x4014db23	2.325875
2	0x40079ec7	2.119066
3	0x3fc4105e	1.5317495
4	0x408155a6	4.041705
5	0x407e71a8	3.975687
6	0x401e4370	2.472866
7	0x4003ee05	2.0614026

resnets.0.conv1.conv2d.bias f4 [32]
0	0xbc9677f1	-0.01836774
1	0x3db51f7c	0.08843896
2	0x3df706e3	0.120618604
3	0x3dc90d6b	0.098170124
4	0x3d87062d	0.06592975
5	0x3e2a6672	0.16640642
6	0xbd6afd56	-0.057370506
7	0x3e7f5072	0.24933031
8	0x3d6889ed	0.05677216
9	0xbcacae4b	-0.021079203
10	0xbd9d2fda	-0.076751426
11	0x3db67cfd	0.089105584
12	0xbc31c56b	-0.010850291
13	0xbd9b4c97	-0.07582968
14	0x3e855ec9	0.26048878
15	0xbd58a057	-0.052887287
16	0xbd6ba2f5	-0.057528455
17	0x3e3aa6bf	0.18227671
18	0xbe96d269	-0.29457405
19	0xbdb0c483	-0.08631232
20	0x3bd384bb	0.0064550317
21	0x3dc3825c	0.095463485
22	0xbea9720b	-0.3309482
23	0x3ecec118	0.40381694
24	0xbdb1995a	-0.086718276
25	0xbd551852	-0.052025147
26	0x3e4d8319	0.20069541
27	0xbddb8530	-0.10718763
28	0xbe0d8231	-0.13819195
29	0xbd9779bf	-0.07396268
30	0x3da9c245	0.08289007
31	0xbdf4afad	-0.1194757
